Model/CNN_aaindex.pt (torch, 699099 bytes, 14 tensors)

conv1.weight f4 [64, 531, 3]
00000000: 5a2e e43c 91d0 9ebc a029 83bc bb0a 273c
00000010: 8550 c7bb 6f2e 21bd 765b 973c 9cb4 39bc
00000020: 457a bfbc 89a0 353a ac44 acbc 1312 a6bc
00000030: 92e2 583c d3b2 aabc fe23 32bb 8182 ed3c
00000040: c8bc d9bb 4b66 1dbd 93ad 233d 78ef d0bc
00000050: 7c6f ffbc 0109 cc3c b184 5fbb b07c 2cbc
00000060: 214b 9cbc a55f a4bc 4c64 84bb 3081 803b
00000070: f84c c7b7 442f 693c 37c7 d83c 9028 a23c
00000080: 6b7d d6bc c828 643a 90dc 1bbd f1ea b1bc
00000090: 33c4 f03a a75b 8bbd a07e 67bc 62d7 c3bc
000000a0: 9aeb a13c 3c07 7d3c e894 09bb 8aed 1ebd
000000b0: 0274 18bd 8a24 fe3c 31bb 113c 8f78 3f3b
000000c0: 5e53 233c 705b 12bd 1dff 1bbb 9474 c83c
000000d0: 4386 b6bc d62e 36bd cbe1 223c 67c1 e8bc
000000e0: 911a d7bc 5f54 b43c 6230 babb 65f9 59bb
000000f0: 1640 813c 3e10 21bd 6664 a6bc 73c4 813c
00000100: 75fc 1abd 86a0 52bc d66d d13b 8734 ca3b
00000110: 8719 c73b a7b9 f13b 9769 e9bc 4bc7 57bc
00000120: 5bc8 393d e864 82bc d28a b6bb 4c59 723d
00000130: ab8c a6bb ee75 37bc 2ee8 3ebc 02db f4bc
00000140: 1a51 2bbc dc57 16bd d24f 3fbd 90fe 04bb
00000150: d36d 3cbd f07a 2fbd 055a 863a 1eff 93bc
00000160: 3c19 813c a219 e5ba 4b2e 893c f793 4bbc
00000170: b30a 1dbc 3ad6 703c 3030 31bd ff98 dabb
00000180: 7d13 c8bb 361e e3bc add0 d3b9 76c5 e03c
00000190: 3842 03bc 5f81 f7bc c89a 873c 3a43 9dbb
000001a0: adbd f0bc e8f1 ab3c dc48 cd3b 7ca0 38bd
000001b0: 6920 c73b ec4d 07bc 7fc3 15bc 1415 183c
000001c0: d5d4 16bd 39f7 88bb 759f 013d 511c 6bba
000001d0: 5673 a2bc 6d7f 023d 27ab e5bc f6db 4cbc
000001e0: 3764 2b3d cace d8bc 2164 34bd 9ada d13a
000001f0: c1ad 61bc 3e46 d1bc 9976 f33c 5e16 8fbb
00000200: 50e1 f8bc 1584 323c aeb6 69bb 38ff 13bd
00000210: 7a9a caba 2d29 3ebd 0ab3 bcbb a1b9 6c3b
00000220: bac9 cbbc 52cd c1bb 7555 163d fcb3 cabc
00000230: bd98 86bc 4138 1a3d 7948 ba3b c707 09bd
00000240: 460e 013d 7333 3dbb 14c7 2dbc a473 0c3d
00000250: 3c4e ccbc ae30 04bd 4fb8 df3c fdb5 de3b
00000260: 78ba c7bc a932 0cbc 754f 183b 06d5 bbbc
00000270: cb26 e43c d418 2e3c 217b 22bc 58c8 69bb
00000280: d001 a2bc 829f ac3c 9016 08bc 088b febc
00000290: 5570 d33b 5571 acbc e030 68bc 66b2 2e3c
000002a0: 742f 9a3c e3bf 4dba 6797 9e3b 12c9 f5bc
000002b0: d547 3cbc a073 873c 1769 68bc e5e4 8ebc
000002c0: df19 fcbc 7516 ab3c 2783 ffbc b39b 98bc
000002d0: e91c 2d3d d779 1cbd ba0b 5bbb 8a9d 303c
000002e0: 481b 99bb c194 753b a637 1bbc b22c cebc
000002f0: f042 e0bb 8172 aabc 3c87 eebc 25cd 35bd
00000300: a769 913c e9c2 d2bc 4252 0abc cfc2 493d
00000310: 11de a33b 8559 b13a c321 2f3d 8739 523b
00000320: 2c30 4cbc dd06 bf3c 67c2 103b c619 443b
00000330: 920a 1d3d 848f 4bbc 32b2 cbbc 9448 66bd
00000340: 141e d2bc b6f9 a2bc e759 023d 7160 833c
00000350: 0da3 c83a a211 d33c 63bc c4bc c713 febc
00000360: 3e98 0dbc f30c d9bc c484 11bd cb6d 0cbe
00000370: 65ef e33c ac85 e1bc cb71 e43a 75d2 45bc
00000380: 5537 3bbd 41bd 95bb ef98 0a3c ed88 bebb
00000390: e08e 2b3d b1cf f9bb 6613 4b3b 225c 0b3c
000003a0: 9522 60bc a1be f5bc 84a8 5b3c 75ca 8abc
000003b0: 747d 2dbd 6bf8 853c 1051 bfbc 27b7 edbb
000003c0: 35b2 043c 53fe e4bc 5814 b83a 72c3 9f3a
000003d0: 069b 16bd 5731 a4bc be32 233c 70bf 33bd
000003e0: e3b2 4bbc 9a0c 493d 933f ffbb cd68 c6bc
000003f0: 9330 2e3d 33c3 04bd aa18 d33b 6ce9 a53b
0.027854133 -0.019386562 -0.01601106 0.010195429 -0.0060825967 -0.039350923 0.01847623 -0.011334565
-0.023373732 0.00069285237 -0.021028839 -0.02027229 0.013237612 -0.020837223 -0.0027182098 0.028992893
-0.006644819 -0.038427632 0.039960455 -0.025504813 -0.03118109 0.024906637 -0.003410619 -0.010527775
-0.019078793 -0.020065138 -0.0040402766 0.0039216504 -2.375849e-05 0.01423246 0.02646218 0.019794732
-0.02618285 0.00087035866 -0.03805214 -0.021718474 0.0018369019 -0.06804591 -0.014129311 -0.023906413
0.019765664 0.015443619 -0.0020993296 -0.038800754 -0.03722001 0.031023283 0.008894728 0.0029216146
0.009968607 -0.035731733 -0.0023803182 0.024469651 -0.022280818 -0.04447826 0.009941529 -0.028412534
-0.026257785 0.022012888 -0.005682037 -0.0033260223 0.015777629 -0.03932213 -0.020311546 0.015840745
-0.037838418 -0.012855655 0.0063912673 0.0061708125 0.006076041 0.007376868 -0.028492732 -0.013170074
0.04535709 -0.015917256 -0.005570748 0.05916719 -0.005082687 -0.01119755 -0.011652036 -0.029889587
-0.010456348 -0.036704883 -0.046706982 -0.0020293333 -0.046003174 -0.04284185 0.0010250217 -0.018065985
0.015759103 -0.0017478953 0.016745707 -0.012425414 -0.00958507 0.014699513 -0.043258846 -0.0066710706
-0.006105839 -0.027724367 -0.00040400532 0.027437907 -0.008011393 -0.030213056 0.016553298 -0.004799274
-0.02938732 0.020989373 0.006264789 -0.045074925 0.0060768616 -0.008258324 -0.009140848 0.009282369
-0.036824066 -0.004179862 0.03164621 -0.0008968758 -0.019830387 0.031859804 -0.028035713 -0.012503615
0.04184362 -0.026465792 -0.044040803 0.0016010583 -0.013774336 -0.02554619 0.029719638 -0.00436668
-0.030380875 0.010895749 -0.0035661864 -0.036132067 -0.0015457415 -0.046425987 -0.005758648 0.0036121386
-0.024876464 -0.0059143687 0.036702592 -0.024744026 -0.016430253 0.037651304 0.005684909 -0.033454683
0.031507753 -0.0028869777 -0.010606546 0.03428997 -0.024939649 -0.032272987 0.027309565 0.006796597
-0.024380907 -0.008557 0.002324072 -0.022928726 0.02785053 0.010626037 -0.0099170515 -0.0035672393
-0.019776255 0.021072153 -0.008306161 -0.031072155 0.0064526 -0.021050135 -0.014171809 0.010662651
0.018821456 -0.0007848723 0.004839826 -0.030003104 -0.0114917355 0.016534626 -0.014185212 -0.01744313
-0.030774055 0.020884732 -0.031190468 -0.01862893 0.0422639 -0.038202133 -0.0033423738 0.010779748
-0.0046724416 0.0037472697 -0.009473717 -0.025167797 -0.006843917 -0.020806553 -0.02911722 -0.044385094
0.017750574 -0.025727706 -0.008442463 0.04925805 0.0050008376 0.0013530707 0.042756807 0.0032077746
-0.012462657 0.023318702 0.002208853 0.0029922589 0.03834016 -0.0124243535 -0.024865244 -0.05622156
-0.025649108 -0.019894462 0.03182402 0.016037198 0.0015307382 0.025765244 -0.024015611 -0.03101529
-0.008642254 -0.026495432 -0.035527006 -0.13713758 0.027824113 -0.02752956 0.0017428932 -0.012074103
-0.045707066 -0.00456968 0.008459314 -0.0058146627 0.041884303 -0.0076236357 0.0030986904 0.008505853
-0.01368012 -0.029998126 0.0134068765 -0.016942242 -0.04235597 0.016353806 -0.023354083 -0.0072544995
0.0080991285 -0.027953302 0.0014044149 0.0012188985 -0.036768936 -0.020043058 0.009960828 -0.04388374
-0.012432787 0.049084283 -0.007789561 -0.024219895 0.042526793 -0.03241272 0.006442149 0.0050632264

conv1.bias f4 [64]
00000000: 7bfe 87ba 4ec8 18bc 8a9d d2bc e722 a9ba
00000010: b03c 0abc eae8 043d 5522 99bb 8412 a23c
00000020: 3828 3fba b237 84bb 006c 81bb c897 dbbc
00000030: 07b9 393c b181 d2ba e50d 23bc c7cf 93bb
00000040: f059 f7b9 fe53 65bc b14d 963c 1ae1 9abc
00000050: 5b59 29ba 8058 e03c 1792 1fbc e24e ca3c
00000060: 3cab f9bc 873b 003d 1544 ebbb 3719 aabc
00000070: cd95 0bbc 0928 03bc 82f5 94bc 72bb 86bb
00000080: 4e89 d5ba 0cca 173d 9927 fcbb 62c3 ccbb
00000090: 55d0 183d f707 2b3d 997e 633c d477 b2bb
000000a0: b9b0 d4bc 8cd8 d0bc c6b3 d93c dca5 e0bb
000000b0: 16fb 83bc a2ac cbbb e853 9bbc dce4 0fbc
000000c0: d871 03bc dc3d d8bb ce56 cf3c 0ec8 d1bc
000000d0: 0b20 1bbc 8f66 f1bc 25aa dbbc 33df e83b
000000e0: 818d 9ebc 824f 0bbc af89 01bd 3cb4 fcbb
000000f0: 19ee 283c 227a babb ccef fdbc df5d 0abd
-0.0010375524 -0.0093251 -0.025709886 -0.0012904078 -0.008437321 0.032448687 -0.004673282 0.01978422
-0.0007292065 -0.0040349597 -0.003949642 -0.026805773 0.011335618 -0.001606038 -0.009952043 -0.004510853
-0.0004717852 -0.013997076 0.018347593 -0.018906165 -0.00064601534 0.02738595 -0.00973942 0.024695817
-0.030477159 0.03130677 -0.007179747 -0.020763976 -0.008519602 -0.008005151 -0.018183473 -0.0041117007
-0.001629153 0.03705792 -0.00769515 -0.0062488774 0.037308056 0.041755643 0.013885164 -0.0054464135
-0.025963174 -0.025493883 0.02657498 -0.0068557095 -0.016110938 -0.006215648 -0.018960908 -0.008782592
-0.008022748 -0.006599171 0.025309946 -0.025608089 -0.009468089 -0.029467849 -0.02681453 0.0071066855
-0.019354584 -0.008502843 -0.031625446 -0.0077119153 0.010310673 -0.005690829 -0.030998133 -0.03378093

conv2.weight f4 [128, 64, 3]
00000000: 4a28 7b3d efc3 663d 9084 8abd 8e8c 1fbd
00000010: 9eb2 803c 0c50 913d 6a70 33bd 7a0e e73c
00000020: 823f 80bd de29 fcbc 80f1 debb 1edd 9abd
00000030: 3830 203d 3fe8 0cbd a1dd 04bd 912d 603d
00000040: 01ae 4fbd 0af2 7abd fa68 3fbd a943 5bbd
00000050: c3e9 fbbc f041 503d 78cd b8bc 9912 283d
00000060: 4a2f 36bd cbd7 353d bb48 7bbc dd63 1bbd
00000070: 579b 24bd 9d81 793c 28e2 75bd 5caa 7abd
00000080: b94a 39bd 6a6a d5bc ca6f 1cbd 8a86 e1bc
00000090: 4420 63bd 2b69 a3bb 027d 303d c2ba 69bd
000000a0: 41b6 3fbd 8677 553d a650 5ebd 2319 1c3d
000000b0: f766 033d 7a3a 8e3b d4b8 2abd 599a 813d
000000c0: 3db7 bd3c d56c 413d cad7 41bd 01e8 403d
000000d0: b4aa e63c eda8 733d a395 21bd c017 8abb
000000e0: 6f1f 27bd 774e adbb aca4 133d 1866 623d
000000f0: 0d11 5b3d 0bc9 4cbd c77f 2a3c 92f8 6b3d
00000100: 34e5 c23d a160 833d ece3 083d 35ab 70bd
00000110: 9746 6dbd 509e 51bd 590f 163d ca9e 503a
00000120: 5a37 be3c 7ebf 553c 5aec 5fbd 9fe0 843d
00000130: e8e8 4e3c 72c3 9c3b 8633 4f3c ce02 063d
00000140: 52b1 68bc 90bf 943d 13e8 7c3d 5221 86bc
00000150: 33b7 033c b1fd 1b3d 140d 87bd 5c1c 6abd
00000160: 7a66 ad3d e63f abbc be6f 9fbc fc48 1fbd
00000170: f0d9 c73b b043 d03c 3473 e7bc b323 f4bc
00000180: 1598 973d 8877 123d 38dc 7a3d a79f 443d
00000190: 2d0b fa3c b57d 26bb 04cb 24bd 2725 6f3d
000001a0: 970f 6fbd fc5d 7c3d 33da 953c 7612 b43c
000001b0: 1f78 ed3c 1150 cc3c 7a17 9f3d 8bcd c53a
000001c0: 1543 9cbd 2590 33bd e400 5bbc 17e9 893d
000001d0: 022a e4bc 69f2 0abd 4274 023d 0b1b b1bc
000001e0: 20fe 6e3d c09c ed3a bbf0 283d 3a8e 8bbd
000001f0: 4877 cd3c 3aeb 89bc 919c 6d3c 4aab 5bbd
00000200: 5daa 89bc a42b adbc 82d5 943c a74c 34bd
00000210: 46a0 61bd ac25 af3c b59d af3c 7d05 20bd
00000220: 3cd5 53bd 9932 583d 4e26 f33c 7b34 0dbd
00000230: 8032 f3bb f6ea 8b3b d97e 8d3d 7158 3a3d
00000240: 39d7 be3c f746 3dbd cd4c 153c 5fe0 8f3d
00000250: 99f1 22bd 98f9 0fbc 730d 1ebd 9c30 863d
00000260: 05d7 383d 8e41 66bd b897 933d d553 293c
00000270: 5000 413d 9191 49bd b8c7 363d aa6c de3c
00000280: 84d8 a93c 175e 6abd bb67 81bc 7f10 be3a
00000290: 72a7 203d 191e ed3d 4433 dc3c 5470 ae3d
000002a0: d5da 523a 9209 ae3d 7140 50bb 8811 15bd
000002b0: 0d41 b33c d7a5 ce3b e61f 873d 60dd a2bc
000002c0: 5d5f cfbc e72e 1fbd 8689 573d c898 ee3c
000002d0: b120 4a3d b034 f5bb 93da 9b3d ce23 eabc
000002e0: 7767 5e3b 63e3 5abd 0213 4d3d 0b51 3d3d
000002f0: e53a 82bd bc31 823d 505e 03bd d0c9 9f3c
00000300: a320 dabc 7a1b 9ebc 1ae9 44bc 627f 5abd
00000310: e919 283d 9904 8eba 9ce6 a2bc 1f01 e1bc
00000320: 94df 71bc 3f81 19bd b042 aabc a8bd a3bc
00000330: aebf a83c 1ca5 2bbb cce1 ba3c aa87 6e3d
00000340: db46 a0bc 374e a03d 8a15 e5bc e09f b3bc
00000350: 2a40 9ebc 83e4 ddbc e423 7cba 6cc8 e53c
00000360: ecc9 1c3d 8680 76bd 2eb9 b03b 9f06 76bd
00000370: e854 c6bc 3135 68bc d52b 80bb 7a33 4abc
00000380: 2592 1abc 1e90 643c dad9 cdbc f542 3cbd
00000390: c284 b63c 68b1 d43b e380 00bd 3fa5 2f3d
000003a0: f4a5 6cbc d6be 643d 1a75 2e3d 18de 6abd
000003b0: 90db 6ebc a4c5 083d 5560 533c f98f 29bc
000003c0: 31ad 87bd e547 003d b0d8 4bbd 3815 433d
000003d0: 7fd6 0d3d d83d 63bc cf3b bebc e337 d33c
000003e0: 669e ec3c caa6 2bbd b768 c7bb 3181 b23c
000003f0: 09b9 3b3c d3b3 1e3d 1636 6cbd 04b2 61bd
0.06131772 0.0563392 -0.067635655 -0.038952403 0.015710171 0.07095346 -0.04380838 0.028205145
-0.06262113 -0.030781683 -0.0068036914 -0.07561706 0.039108485 -0.034401175 -0.032437924 0.054730956
-0.050703052 -0.061265983 -0.046730973 -0.053531323 -0.030751115 0.050844133 -0.022558913 0.04103336
-0.044478692 0.04439525 -0.0153371645 -0.037937034 -0.040187206 0.015228656 -0.060030133 -0.061197624
-0.045237277 -0.026051719 -0.038192548 -0.027529974 -0.055450693 -0.0049869022 0.043087967 -0.05706287
-0.04680467 0.05211594 -0.05427613 0.03810991 0.032080617 0.004340467 -0.041680172 0.063282676
0.023158664 0.04722293 -0.047324933 0.047096256 0.02815757 0.059487272 -0.039449345 -0.004214257
-0.04080146 -0.0052888948 0.036045715 0.055273145 0.053483058 -0.049996417 0.010406441 0.057610102
0.09516373 0.06414915 0.03342049 -0.058757026 -0.057928648 -0.05117637 0.03663573 0.0007958232
0.023219753 0.013046144 -0.05466876 0.064881556 0.012628771 0.004784041 0.0126465615 0.03271752
-0.014202433 0.072631 0.06174476 -0.01637331 0.008039284 0.038083736 -0.06594291 -0.05715595
0.084668115 -0.020904493 -0.019462463 -0.038887963 0.006098978 0.0254229 -0.028253175 -0.029802179
0.07402054 0.035758525 0.061245173 0.04800382 0.030522907 -0.0025404517 -0.040232673 0.05838504
-0.058364477 0.061613068 0.018292522 0.02198146 0.028987942 0.024940522 0.0776815 0.0015091164
-0.076299824 -0.04383864 -0.013366912 0.067339115 -0.027852062 -0.033922587 0.031849153 -0.02161934
0.05834782 0.001812838 0.041245203 -0.06814237 0.025081292 -0.016835798 0.01450266 -0.05363015
-0.016804868 -0.021138974 0.018168215 -0.044018414 -0.05508449 0.021380268 0.021437505 -0.039067734
-0.051717028 0.05278263 0.029681351 -0.034473877 -0.0074217916 0.004269953 0.0690896 0.0454945
0.023295986 -0.046210255 0.009112549 0.07025217 -0.039781187 -0.008787535 -0.038587045 0.0655224
0.045126934 -0.05621486 0.072066724 0.0103349285 0.04711944 -0.04921109 0.04462406 0.027151424
0.020733126 -0.057218637 -0.015796533 0.0014500766 0.03922219 0.11578006 0.026879914 0.08517519
0.0008043473 0.08497919 -0.0031776691 -0.036393672 0.021881605 0.0063063907 0.06597881 -0.01988095
-0.025314027 -0.03886309 0.052621387 0.029125586 0.049347583 -0.0074830875 0.07610049 -0.028581526
0.0033936182 -0.05343951 0.050066955 0.046219867 -0.063588895 0.06357142 -0.032072365 0.019505411
-0.02662689 -0.019300211 -0.012018466 -0.053344138 0.041040335 -0.001083511 -0.019885354 -0.027466355
-0.014762778 -0.037476774 -0.020783752 -0.019987896 0.020599212 -0.0026190942 0.022812746 0.058234848
-0.019565037 0.07827418 -0.027964372 -0.02192682 -0.019317705 -0.027086502 -0.0009618385 0.02804967
0.038278505 -0.060181163 0.005393169 -0.060064908 -0.024210408 -0.014172838 -0.003911475 -0.0123413745
-0.009434258 0.013950376 -0.025128294 -0.045962293 0.0222801 0.006490875 -0.031372916 0.0428822
-0.014443863 0.055846058 0.042592146 -0.05734071 -0.014578715 0.03339161 0.012901385 -0.010349267
-0.066248305 0.031318564 -0.049767196 0.047627658 0.034628388 -0.013869725 -0.023221878 0.025783485
0.028884124 -0.04190711 -0.006085481 0.021790119 0.01145769 0.038745712 -0.057668768 -0.05510141

conv2.bias f4 [128]
00000000: de2b 63bd 6c06 933c 1835 0e3c ac56 15bd
00000010: 27b5 83bc 2295 6c3d aaa5 7d3c e79f b9bc
00000020: b765 e1bb ed9c 19bc b0f0 483d 8f91 74bd
00000030: 0ae3 2ebd b401 40bd b428 15bd e72e f03c
00000040: 4a84 05bd 45e3 86bd 634d 71bd c81b 573b
00000050: aed2 58bd 9e40 74bd 48fb 333c 9de6 1abd
00000060: 1c68 133c bf50 60bd 5979 1abd 43a0 0ebd
00000070: 7a09 9c3c b389 413c 1f71 993d f98e 0fbd
00000080: bcbb e23c 6f1b 473d 30c0 9ebd b01a 0abd
00000090: 640d 083b 0744 473d 43ef ccbc d46d a8bd
000000a0: 918c 46bd 2d58 3f3d cc46 413a f217 a9bc
000000b0: a68f 5ebd 40d7 973c 9e47 653d 202c 95bc
000000c0: 507c 96bc 9ad3 013d f673 89bd 2b34 53bd
000000d0: 0d8d d23b 1bc0 b73c 65fb a63d cd3f 9dbd
000000e0: 2d3e 7fbd b5f6 8b3c fdd3 553d 3c95 9bbd
000000f0: 3cda 5d3c 5eb8 723d 7a2a 9dbd ff43 72bd
00000100: c81f 303d 07c3 88bd 2508 47bd 99f3 b4bb
00000110: 32b1 c9bc 130a a63d 4c41 9bbd d62e f13c
00000120: 9de4 7cbd 60b6 c43b a4c0 d7bc ba90 6e3d
00000130: 5004 863d 0293 7c3d 6f63 913d 0dbd 33bc
00000140: 13bd 17bd 4349 7cbd d802 96bc ae84 21bd
00000150: cc1b be3c c8b0 0d3d b62c 17bd 1173 d23c
00000160: af71 acbc c385 f33c 74f9 7a3c 7a72 acbd
00000170: ba3a 20bd 09c3 b0bc 6034 f6bc 50a1 7b3d
00000180: b234 30bd 7f81 e2bc e928 c73c 47ba 213b
00000190: c33b 89bd 4b95 45bd 648d 64bc 8a67 eb3b
000001a0: 2bc4 77bd a3f1 9ebd 8ee6 49bd a11d 0fbd
000001b0: 6469 94bd ce89 c93c 6cdb 353d bc7b b13c
000001c0: 38a8 3fbc b39f 64bd 123c 0b3d 344a 483d
000001d0: 8b65 8abd f283 7bbd 92c0 21bd c609 41bd
000001e0: 818e f03c 0bf4 673d 5181 09bc 8e4a f7bc
000001f0: 014d 023d 1337 183d 230a ae3d e84e bfb9
-0.055461757 0.017947398 0.008679651 -0.03645961 -0.016077591 0.05775941 0.015481392 -0.022659255
-0.0068785804 -0.009375793 0.049057662 -0.059709128 -0.04269699 -0.046876624 -0.03641577 0.02931924
-0.032596864 -0.06586317 -0.058911692 0.0032822955 -0.052935295 -0.059631936 0.010985203 -0.037817586
0.00899699 -0.054764505 -0.037713382 -0.034820806 0.019047488 0.011812615 0.07492279 -0.03504846
0.02767741 0.048610147 -0.077515006 -0.033716857 0.0020759935 0.04864886 -0.025016433 -0.08224073
-0.0484739 0.04671495 0.0007372915 -0.0206413 -0.054336213 0.018535256 0.055976503 -0.018209517
-0.018369824 0.03169594 -0.06711571 -0.051563423 0.006425506 0.02243047 0.081534185 -0.07678185
-0.062315155 0.017085413 0.05220412 -0.075968236 0.013540801 0.059257858 -0.076741174 -0.059146877
0.04299906 -0.066778235 -0.04859175 -0.005522203 -0.024620626 0.0810739 -0.07580814 0.029441278
-0.06174146 0.006003186 -0.026336975 0.05824349 0.06543791 0.061663635 0.070990436 -0.010970366
-0.03704555 -0.061593305 -0.018311903 -0.039433174 0.023206614 0.03459242 -0.036907874 0.025689634
-0.021050302 0.029726868 0.015318263 -0.08420272 -0.039118506 -0.021577375 -0.030054271 0.061433136
-0.043019004 -0.02764964 0.0243115 0.002467768 -0.06700852 -0.04823808 -0.013949726 0.0071839737
-0.060489815 -0.07760932 -0.04929214 -0.034940366 -0.07246664 0.024601843 0.04439871 0.021665446
-0.011697821 -0.055816364 0.033992834 0.04889889 -0.06757649 -0.06140513 -0.03949029 -0.04712846
0.029364826 0.056629222 -0.008392648 -0.030186918 0.031811718 0.037161898 0.08498027 -0.0003648915

selfattention.key_layer.weight f4 [24, 128]
00000000: 104b b538 06c6 8ebc f1d4 a13b 0985 783d
00000010: 4602 c1bd 11c5 973c 56e4 c1bd 2f5e 5c3d
00000020: 3f96 1d3d 50e9 803d 9c38 e73b d12c a0bd
00000030: e0c5 1b3c d3ae 8dbb 01da 03bd f099 503c
00000040: 85cb 35bd 123a 9bbd cfdf ee3a 2350 88bd
00000050: 2aec 463d 1543 d2bd a7fe 983d e018 08be
00000060: 64fa f03c 300c cfbd 736d c0bd 63cc 5c3d
00000070: 065d 8a3d 6eaf a3bd 0582 073d f57a 833d
00000080: 5e3f db3c d4d4 713d 05b5 b23b d737 9abd
00000090: 3bd6 68bc cccf b2bc 8a70 52bd 39a5 6c3d
000000a0: 7376 413d 12a2 813d 5169 6b3d 6274 dd3d
000000b0: c65b 5a3b 82e5 863d 6353 b83d 4102 1e3c
000000c0: 700c 7fbc 4cc8 643d 3ab3 d83c eb25 0fbd
000000d0: d2a9 763c dd25 573d ba0c 87bd 80ff 3b3d
000000e0: fde5 8ebd b89e 5dbd 31c0 50bc 3997 d7bd
000000f0: 3a63 a4bd d002 86bd 1f06 013c 0c6a 2ebd
00000100: bc33 333d a719 6d3d 8ed6 7abd 3ac6 89bd
00000110: 2133 3fbd e54d 6bbc a534 833c 5ae0 053d
00000120: 275e 563d c44d 86bd 6e55 19bd e15a b43a
00000130: 78bb 353d e05e 883d 1d4b 783c 20b3 34bd
00000140: a525 bfbc dcfb 073d 9db0 3abd 7c7b 883d
00000150: 8b1c e53b 2f78 50bc e2da 90bd f432 563b
00000160: c241 1a3d 453d 38bd f8ce c63d 3e67 263d
00000170: fd7e c13b 4f9a 573d 6350 91bc 6492 bf3d
00000180: 062f bcbd 3060 94bd f5f5 87ba 8ebe 543d
00000190: 1a7f ae3d f8d0 04bc ad91 5cbc c145 a6bc
000001a0: 7f6f 91bc 084a e4bc 9979 583d 6941 43bd
000001b0: 63ab 7ebd 34e4 8dbd c8b5 d33d 5bec ccba
000001c0: fd76 60bd a9e5 c03d a997 abbc 90fc a43d
000001d0: 5bce 8c3d 208c 143c a1cd 293d c057 49bd
000001e0: af36 2d3d 519b e7bd 6108 fb3c 3f12 bfbd
000001f0: d7fa 4a3d 4f09 d6bc b0b6 88bd 7a83 4bbc
00000200: 7bb9 923d ea33 c2bd 169c 45bd cf5f 933c
00000210: 449c e53c d033 283c 928d 9dbd 298c 9d3d
00000220: 8c51 06bd 7428 1ebd e5d9 89bd cc09 a2bd
00000230: b26e 8ebd abf1 9cbc 917e 4bbd 3508 8fbd
00000240: c3b5 e53d a4a1 d3ba a802 ea3c 91cc 09bd
00000250: 0510 41bc d5bc f53c f779 fd3c 81f5 a4bd
00000260: db63 9fbd e86c 003d 9cdc 2e3c 2a3a 393d
00000270: e896 be3d 41a8 14bd 26d7 01bc b4a9 b63c
00000280: 3593 523d 4d19 19bd ff31 3a3d 4812 af3a
00000290: e8dc b3bc e8aa 9bbd 9512 babd 1277 afb9
000002a0: 3967 0ebd 7afb 673d c2c1 103d 1ff3 583d
000002b0: 9c24 54bd 6554 afbd 305c fc3d 5790 7cbd
000002c0: c316 5fbd c056 abbc ed2d 01be 166e aabd
000002d0: e038 88bd db8e 903d db50 96bd 12d7 2639
000002e0: 93d5 77bc cd31 45b9 df9b 60bb ed13 063d
000002f0: f569 dabc 489b 4f3c 27f6 2c3d 00ee a9bd
00000300: 8387 b83d 1780 2bbd ab9f 723d c39a 4c3d
00000310: 075b 48bd f147 53bc 7d56 7f3d cb04 463d
00000320: 4974 f43c e786 a5bd 7690 25bd 24c2 983d
00000330: 11ce 1d3b 1fdb 213d 8ac1 093d ec61 d136
00000340: 37cb 26bc 3029 723d d0cc 8f3d 5543 8e3b
00000350: 8a69 24bd d1d5 94ba c90e 463d 74f0 27bd
00000360: e688 7dbd 5fb3 c0bb 2e13 043d e3f0 20bc
00000370: 74c6 abbd 74cc 50bd 2754 5cbd 1107 e2b9
00000380: 278c d43c e8a7 9dbb 503c 3f3d 1c5a 783d
00000390: 5436 613c 83aa 163c 7a02 e9bd a9d4 da3d
000003a0: 8d8b 05bc 0fcf b3bd 3656 6b3d 4929 d63d
000003b0: fafd 5ebd 0d35 25bd 5d02 6dbc bbf7 1a3d
000003c0: 87ca bb3d a7c4 a13d d148 85bd 6b6b 2abd
000003d0: ab47 48bd 96c5 c43c a0f8 afbd 29ce 0b3d
000003e0: c293 4ebd f9b4 c7bc 4840 543d d704 a8bd
000003f0: b871 65bd 4618 ad3c 7c26 8c3c b448 e7bc
8.644734e-05 -0.01742841 0.0049387147 0.060673747 -0.09424262 0.018526586 -0.0946738 0.053800758
0.038473364 0.06294501 0.007056309 -0.07821048 0.009507626 -0.004323819 -0.032190327 0.012732014
-0.044383544 -0.075794354 0.0018224659 -0.0665591 0.048565067 -0.10266701 0.07470446 -0.13290739
0.02941627 -0.101097465 -0.09395876 0.053905856 0.06756024 -0.07992445 0.03308298 0.064199366
0.026763614 0.05904086 0.005453708 -0.07530182 -0.014211233 -0.0218276 -0.051376857 0.057774756
0.047232103 0.063297406 0.057473484 0.10813214 0.0033318861 0.06586744 0.0900028 0.009644092
-0.01556693 0.05585508 0.02645265 -0.03494827 0.015055137 0.052526344 -0.06594224 0.04589796
-0.069774605 -0.054106444 -0.0127411345 -0.1052689 -0.080267385 -0.06543505 0.007874995 -0.042581603
0.04375051 0.057885792 -0.06123977 -0.06727262 -0.04667962 -0.014361833 0.016016314 0.03268466
0.052335884 -0.06557801 -0.037434988 0.0013759994 0.044368237 0.06658721 0.015154627 -0.04411614
-0.02333338 0.033199176 -0.045578588 0.06664178 0.006991928 -0.0127239665 -0.070729986 0.003268418
0.037660368 -0.044980306 0.09707445 0.040625803 0.0059050308 0.052637395 -0.017738527 0.09354094
-0.091886565 -0.07244909 -0.0010372984 0.05193954 0.085203364 -0.008106463 -0.013462466 -0.020296933
-0.01775336 -0.027867332 0.05285034 -0.0476698 -0.062175166 -0.06928292 0.103374064 -0.0015634404
-0.054800976 0.09418804 -0.02094634 0.08055985 0.06875297 0.0090666115 0.04145587 -0.04915595
0.04228848 -0.11308921 0.030643644 -0.09329652 0.049555626 -0.026127486 -0.0667547 -0.012421483
0.07164284 -0.09482558 -0.04824456 0.017990021 0.028028615 0.010266259 -0.07693018 0.07692749
-0.032792613 -0.038612798 -0.06731013 -0.07912025 -0.06954707 -0.019158205 -0.04968125 -0.06983987
0.11216309 -0.0016146195 0.02856572 -0.033642355 -0.0117836045 0.029997269 0.030941946 -0.08054639
-0.07782718 0.03135386 0.010672715 0.045221485 0.09306127 -0.036293272 -0.007924831 0.022297718
0.05140992 -0.037377644 0.045457836 0.0013356889 -0.021955922 -0.07600957 -0.090855755 -0.00033467315
-0.03476641 0.05663631 0.03534103 0.052966233 -0.051792726 -0.08561019 0.12322271 -0.06166109
-0.054465067 -0.020915389 -0.12615176 -0.083217785 -0.06651473 0.070584975 -0.07339641 0.00015911114
-0.015126604 -0.00018805936 -0.0034272594 0.032733846 -0.026661852 0.012671299 0.042226937 -0.08297348
0.09010222 -0.041870203 0.059234302 0.04995228 -0.048914935 -0.01289557 0.06233834 0.048344415
0.029840605 -0.08082371 -0.04042097 0.074589044 0.0024079124 0.03951561 0.03363184 6.240085e-06
-0.010180286 0.05912131 0.07021487 0.0043415227 -0.040139712 -0.0011355226 0.048353944 -0.0410008
-0.061898135 -0.0058807577 0.032244854 -0.009823057 -0.08387461 -0.05097623 -0.05379119 -0.00043111344
0.025945736 -0.0048112758 0.046688378 0.06063281 0.013745863 0.009195927 -0.113774255 0.10685093
-0.008150947 -0.08779728 0.057455264 0.10457093 -0.05444143 -0.040333796 -0.0144658955 0.03783391
0.091694884 0.078988366 -0.06508029 -0.041606348 -0.048896473 0.024019998 -0.08592343 0.034132157
-0.05043388 -0.024378287 0.051819116 -0.08204048 -0.056016654 0.021129739 0.017108195 -0.02823291

selfattention.key_layer.bias f4 [24]
00000000: 8629 383d 4cec 943c 97aa 82b9 860f 813d
00000010: 7d3f 283d fb21 62bd 84b9 8cbb be32 283c
00000020: d2c0 01bc 3306 2e3d 3f20 833d c1a2 8fbd
00000030: a1b3 1b3d 633b aabb 9690 a2bd 800d 37bd
00000040: 4764 83bd f050 a8bd 0d6b aebc 01ea 153b
00000050: d21d 883c fb66 af3d dc16 84bd e0d8 383d
0.044961475 0.018179081 -0.00024922632 0.06301789 0.041076172 -0.055208188 -0.004294576 0.010266004
-0.007919507 0.04248638 0.06402635 -0.07013465 0.038013104 -0.0051950677 -0.07937734 -0.04469061
-0.06415611 -0.082185626 -0.02129128 0.0022875073 0.016615782 0.08564564 -0.064496726 0.045128703

selfattention.query_layer.weight f4 [24, 128]
00000000: c240 17bd bfbc d73d 10f4 913b 2fef 6b3d
00000010: 5851 2f3c d71e 85bd c52c 593d e2b6 e13c
00000020: ab9e ec3b 3d4b 253c 74e2 20bd 02d4 303b
00000030: a894 77bd 8110 d7bd 778c 5f3d 03d8 8bbc
00000040: a726 2cbd 0a7f f63d 3b93 e9bc e358 47bd
00000050: 3660 37bd 7e20 57bd e15e a43d d173 dbbc
00000060: 6d55 4f3d b3d2 943d b0d1 093c 3c0d 333d
00000070: c987 c8bc 8b5b ab3c 3bf6 c63c 07c2 abbd
00000080: 3bc9 4b3c 719d a13d c09d 31bd 59b9 84bd
00000090: 06c2 35bd 0b29 02bd ca3f c93d 30cb ca3c
000000a0: 6d97 803d 1224 8f3b c1c1 623d 99db 76bb
000000b0: 40fb ba3d 8d4e 2a3d 739a 84bb f47b b83d
000000c0: e974 013e 8117 d83a 4628 b43c b081 6d3d
000000d0: 4335 963d 41bf b93c 5532 9c3d fdf2 933d
000000e0: 27ce 883d c14b ebbc 9aa8 33bb 9df4 3abd
000000f0: 0f47 ecbc aa3f c53d 6fa5 60bc 3e23 9d3d
00000100: e3e2 683d 9e72 4dbd 810c b23d 73f7 c63c
00000110: 3e7e 39bd 458c 593d 143b 773d 66b2 663d
00000120: 3529 1dbd b42a ad3d 256f 39bd 6a4d 70bd
00000130: b4d5 c13d 2a04 6fbd 3012 b43d f3c2 2b3d
00000140: d472 c43b af8b 073d 6dd7 8e3a b6e9 74bd
00000150: 1d32 ff3b 93f7 ac3d 147d e33d a878 c1bd
00000160: e4f5 e73c 75e0 243d 95aa 88bd 26d6 673c
00000170: 7130 57bd 876d d2bc 0ecb 06bd 0f82 e6b9
00000180: 47ea a63d d01b 453d cc82 833d fdc6 6ebd
00000190: 85cd 8bbd 3ebc e0bc 4180 753d 5bb6 81bc
000001a0: 2cbe ea3b 5a23 7bbd 0521 0a3c 97fc 76bd
000001b0: d4eb dd3b db7b 863d 043b 97bd c106 e13d
000001c0: 5daf 5fbc 9893 61bd 68fd 2cbc 60cc 0cbd
000001d0: 30ec bd3d b87a ad3d 8b96 073e 0e27 59bd
000001e0: f705 fe3b 40ac 803d 4d2a 213c e24a ee3d
000001f0: 9205 393c 8410 8c3d c7ee 5b3c 79c6 55bc
00000200: 6282 b9bc ddc6 04bd ee97 a73d dbb4 16bd
00000210: 97fe ef3b 7374 333d c0cf af3d a21c 643d
00000220: e09f adbd efd9 463c 50d0 023d 7069 d93d
00000230: fc3a 05bd 2feb 49bc 45e9 d03d 1ed2 523c
00000240: 078d 813b c8a5 773d 45ad 59bc 07d8 3abd
00000250: 17d2 8dbd 3fab c1bc f19e c5bc d6c5 dc3d
00000260: 31c4 38bc a4b8 41bb 24ec 85bd 3522 813b
00000270: d315 a03d 429e a2bc 60a2 7e3c ff24 aa3c
00000280: 3ca9 5f3d d3a2 513d 8bfb 4cbd 3d43 eb3d
00000290: 5f2f 933d 8291 b73d 2097 803d 780b 7a3d
000002a0: 4ec2 c7bc 2a88 403d da79 ac3a bc42 9fbd
000002b0: 3556 1fbd f20c 65bd 43e3 b539 c4d6 6dbc
000002c0: e755 95bd b6d1 a9bd 0105 8c3c c631 8c3d
000002d0: 12f5 8d3d a300 e23c 2193 34bd faa9 9b3d
000002e0: f157 693d d7f1 8b3d fdca ac3c 4232 c3bb
000002f0: 91d7 8f3d 04b9 1d3d cc90 993c 221c 98bd
00000300: d7ef 0ebc b0c3 0cbd 4fae 223d da79 9d3d
00000310: 2e17 d63c 8786 0a3d 46b1 fc3c e469 c13d
00000320: 13ea 56bd 5bdd 20bd d6d1 62ba d448 c73c
00000330: cae6 693d fc02 013b 6949 8fbd 52d6 01bb
00000340: 3f18 4a3b a413 a63c 16ac 8cbc c455 c63d
00000350: 5b96 d73c 8262 02bd a58c 143d d61e 0ebc
00000360: 279d 8c3d 0a55 94bd ddc0 2dbd 8d7d 9d3d
00000370: b6a7 b9bd 27c2 bcbc 3767 c63d 884b ae3c
00000380: fa0e 3e3c c99a a2bd 6639 ecbc bb40 9fbd
00000390: 0450 003d ed82 273d f040 883d e45d 95bc
000003a0: e8a9 e2bc 4023 963d 2e66 4bbd d7e0 22bd
000003b0: 1dcc bf3d 3b95 9cbd 77d9 3c3c 27d2 2ebd
000003c0: 299b 4abd 5ec6 9bbd fa9e ed3c 5d76 74bc
000003d0: 4c41 b3bd 7249 f6bc 8982 263d 84fc 653d
000003e0: 8f79 23bc bd8f b3bb 7ac2 45bd ce9c 81bc
000003f0: 3ab7 693d 3597 653d 468a 78bd 6164 a03d
-0.036926992 0.10534047 0.0044541433 0.05760115 0.010700546 -0.06500023 0.05302121 0.027553026
0.007221063 0.010088739 -0.039278463 0.0026981835 -0.060444504 -0.10501195 0.054577317 -0.017070776
-0.04202905 0.120359495 -0.028512588 -0.048668753 -0.04476949 -0.05252122 0.08025909 -0.026788624
0.050618578 0.0726675 0.00841181 0.043713793 -0.02447881 0.020917675 0.024287334 -0.08386617
0.012438114 0.07891358 -0.043363333 -0.06480665 -0.04437449 -0.031777423 0.0982662 0.02475509
0.06278882 0.0043683136 0.05536056 -0.0037667511 0.091299534 0.041578818 -0.004046732 0.09008017
0.12642254 0.0016486497 0.02199186 0.057985008 0.073343776 0.022674205 0.076267876 0.07224081
0.066799454 -0.028722646 -0.0027413727 -0.045643438 -0.028842477 0.096312836 -0.013711317 0.076727375
0.056857 -0.050158136 0.08693791 0.024287915 -0.04528641 0.053112287 0.060359076 0.056322478
-0.038369376 0.084554106 -0.04527201 -0.058667578 0.09464589 -0.05835358 0.087925315 0.041933965
0.005995134 0.033092197 0.0010897942 -0.059793197 0.0077879564 0.084456585 0.11107841 -0.094468415
0.028315492 0.04025312 -0.06673161 0.014150178 -0.05253643 -0.025686992 -0.03290849 -0.0004396592
0.081501536 0.048122227 0.06421432 -0.05829524 -0.06826309 -0.02743351 0.059936766 -0.015834024
0.0071637835 -0.06131301 0.008430724 -0.060299482 0.0067724977 0.06566592 -0.07384303 0.10987616
-0.01365265 -0.055072397 -0.010558464 -0.034374595 0.09273565 0.08470672 0.13241021 -0.05301576
0.007752176 0.06282854 0.009836745 0.116353765 0.011292832 0.068390876 0.013423628 -0.013047808
-0.02264518 -0.032416213 0.08183275 -0.03679357 0.0073240506 0.043812227 0.08584547 0.05569137
-0.08477759 0.01213692 0.031936944 0.10615814 -0.032526955 -0.012324139 0.10200743 0.012867479
0.0039535793 0.060460836 -0.01328594 -0.045616176 -0.06924837 -0.023641227 -0.02412364 0.10779922
-0.011277244 -0.0029559517 -0.06539181 0.0039408454 0.07816663 -0.019850854 0.015541643 0.020769594
0.054604754 0.051180672 -0.050044578 0.11487434 0.0718677 0.089633 0.06278825 0.061046094
-0.024384644 0.047004856 0.0013158873 -0.077764004 -0.038900573 -0.05592055 0.00034692333 -0.014516536
-0.07291775 -0.08291952 0.01709223 0.06845431 0.06931509 0.027588194 -0.044085626 0.0760078
0.056968633 0.06833237 0.021092886 -0.005956919 0.07023538 0.038506523 0.018745802 -0.07427241
-0.008724174 -0.03436631 0.039717015 0.07689257 0.0261341 0.0338197 0.03084625 0.09444025
-0.052469324 -0.0392736 -0.0008652484 0.02432672 0.057104863 0.0019685617 -0.06996424 -0.0019811583
0.0030837206 0.020273037 -0.0171719 0.09684327 0.026316812 -0.031832226 0.03626694 -0.008674344
0.06865912 -0.072427824 -0.042420257 0.076899625 -0.090651914 -0.023041798 0.096876554 0.02127625
0.01160025 -0.07939679 -0.028835963 -0.07776018 0.03132631 0.040896345 0.06653011 -0.018233247
-0.027668908 0.07330942 -0.049657993 -0.039765205 0.093651034 -0.07645651 0.011526457 -0.042680886
-0.04946438 -0.07606195 0.02900647 -0.014920798 -0.08752689 -0.030064318 0.04065183 0.05614902
-0.009977712 -0.0054797814 -0.04828117 -0.01582184 0.057059504 0.056052405 -0.060678743 0.07831646

selfattention.query_layer.bias f4 [24]
00000000: 1ea3 11bd e74b a2bd 6d40 fcbc e081 49bd
00000010: 1ca7 723d 64a9 a73d 7276 303d 5b7c 76bd
00000020: fbe7 a93d c3fa b1bd b92e 75bc cae4 843d
00000030: 2de1 613d aa8d e0bc 1177 12bd 0596 193d
00000040: 316b 403d 34d6 bebc 7e47 75bc f160 b63c
00000050: c5dc 8c3d ceab 1ebd f552 0b3d 1f44 cd3c
-0.03555595 -0.079246335 -0.03079244 -0.049196124 0.0592414 0.081866056 0.04308171 -0.06017719
0.082962 -0.08690407 -0.014964753 0.064889506 0.055146385 -0.0274113 -0.03575808 0.037496585
0.046977226 -0.0232955 -0.014970658 0.022263022 0.06878046 -0.038738064 0.03401466 0.025056897

selfattention.value_layer.weight f4 [24, 128]
00000000: a70e b9bc e2c9 7abd 1281 15bd 48e2 9ebd
00000010: 904d f73c a17e f03c c2f3 1f3d c7fe 8abc
00000020: 7843 b63d 74a9 e3bc 70c2 7cbc b456 9cbd
00000030: ed36 81bd 7d44 07bd 8b3e 05bd 18d5 823d
00000040: 3192 25bc 6fc0 9c3a 39ec 57bd 14dd 4bbd
00000050: 3479 babc 30b1 96bb 385c 60bd a671 7e3d
00000060: 7bbe ab3d 38f1 2dbd 60c0 4fbd 43aa ee3c
00000070: 7068 853c 4cf2 fe3c 437f 64bd fb2a b4bb
00000080: cb28 a43c 104b 81bd f0cc 12bc db47 5d3c
00000090: d8f9 61b9 828c dabc 2a38 893c 8a6e c7bc
000000a0: 847d 6abd f9ef 843c bfaf 613c 8d79 b2bd
000000b0: a560 a23d 9437 52bd 955b e7ba 1157 cb3c
000000c0: 5e40 66bb 9687 6cbd 08b5 d13d 51a5 8dbd
000000d0: 3b65 8c3d c72e c9bc e005 b8bc 6b43 2ebc
000000e0: 21f8 35bd b8ce 1cbd c43d efbc f8d8 46bd
000000f0: 7747 403d 6dfc ed3c 73a3 d83c 55e7 e43c
00000100: ad44 c9bc 030f bf3c 105e 753c a979 e83c
00000110: 36a4 d73c e86f b83d 14b7 5cbc afa1 d6bd
00000120: fef7 a2bb 656c 023d 3deb 9ebc 0ef9 17bd
00000130: 9d9d df3c 7d78 a53c be25 b0bd 684a 163d
00000140: b015 9bbd d045 903d 3892 38bd e408 5abc
00000150: c4dc 9ebd 2282 4cbd a48f b2bc d76c ad3c
00000160: 3a76 2e3d 975a a53c d9b6 80bd d274 37bd
00000170: 405e 223d 6488 c8bd 9274 a23d 2da0 693d
00000180: 7cc6 8ebd 8b8a 26bc fbbb 7fbd 3827 293d
00000190: 9163 acbc 7932 90bd 9bc6 38bd d1cb 813d
000001a0: 1e10 cc3d 6939 efbc c84e 49bd 9e6e d3bd
000001b0: 7642 6bbd da79 343b 0731 76bd e6e6 b5bd
000001c0: 772e 173d cef6 afb7 0ebc b33c dc6c ed3c
000001d0: c68b 19bd 58e5 a3bc fb9c 5e3d 8b51 983c
000001e0: e5ac c2bd ff54 98bd 9bb7 02bd f1b8 85bc
000001f0: 9032 dd3c 8c08 f4bc 843a b3bc 7f39 073d
00000200: cc10 843d 5d0f dbbb 9bb3 95ba 9c14 cf3a
00000210: f1e8 b63b 646d 5bbd e70b 91bc 6ba3 963d
00000220: 3834 c3bc 1439 b53d ffbb 67bd 0536 583d
00000230: 558a adbc f4f3 aa3d a0b9 c4bb 4ae0 efbc
00000240: 4b34 93bd b924 7dbd ef36 1a3d 886c 6dbb
00000250: ad2d b6bd 4399 c93d 05c5 18bc 5e04 a53d
00000260: f1c7 a0bd 992b bcbc d603 193d d003 2dbb
00000270: 0a58 43bc 9e6f 4d3d d21c e5bb dafd 7e3d
00000280: 813a ecbc c0ca 34bd 083e ffbc 6a49 0cbd
00000290: 3717 023b 9927 bc3d f960 cb3d 335f 62bd
000002a0: e318 3d3d 46e0 87bd 568b b6bc 2eb8 f4ba
000002b0: d80c 453c a8d6 703d 227b a9bd 9ea6 a5bd
000002c0: 56d6 a9bd c3a5 ac3d 9dce f93b c90d b83d
000002d0: 7eda 06bc c916 9abd 62d9 a23d af67 953a
000002e0: 5274 a03c 1a23 883c 9163 fe3b e83d b6bc
000002f0: 1577 873c 4820 43bd 2da6 55bd b016 883c
00000300: d59f d5bc 33d8 62bd 514e 89bc 8468 a03c
00000310: bd41 5abd 1511 66bb d57c 853d 350d 90bd
00000320: 4048 bb3d dd2c 87bc bf8e 9ebc 784f 22bc
00000330: 5b70 fe3c 1043 cbbc 7ad5 9a3d 9ede aabc
00000340: 8e48 553d c44f 5ebd d8ae 963d 4aa8 4e3d
00000350: 4ec4 913d c7b1 ca3d ec27 1abd b138 8abd
00000360: bffd 68bc cf29 54bc d975 863d b4d7 9a3d
00000370: 0133 0c3c 93ba c7bc b6d9 f1bc db88 5a3d
00000380: 1eea 54bd f5c3 b53d bc4b 2bbd c3d9 0abd
00000390: bf9e 5f3d 6c89 8dbd 8920 ef3c a5fc 433d
000003a0: c3c1 493d 530a 2ebd 07bc 293d 49a1 53bd
000003b0: ac5b 4abd 420a a1bd 5865 7f3d cd2f e13c
000003c0: 908a 65bd 3e36 6cbc 241b a6bd 95f5 eabc
000003d0: 2463 91bd 4239 8bbd 5a67 3b3d 209a 9f3d
000003e0: 0324 373d 1233 ad3d 4513 9cbd 2e85 0fbd
000003f0: eebe 883d 6d33 893c 95b2 053d 9b6d 41bd
-0.022589995 -0.061227687 -0.036500044 -0.077580035 0.030188352 0.029357256 0.039050825 -0.01696719
0.088995874 -0.027790762 -0.015427217 -0.07633725 -0.063093044 -0.0330243 -0.03253035 0.06388301
-0.0101056555 0.0011959205 -0.052715514 -0.049771383 -0.022762872 -0.004598759 -0.054775447 0.062120102
0.08385941 -0.042466372 -0.050720572 0.029133921 0.016285151 0.031121396 -0.05578543 -0.0054982877
0.020038983 -0.06313145 -0.008959994 0.013505901 -0.00021550746 -0.026678327 0.016750414 -0.024344701
-0.057248607 0.01622771 0.013774811 -0.0871459 0.0792859 -0.051322535 -0.0017651195 0.02482179
-0.003513358 -0.057746492 0.10239607 -0.06916297 0.06855246 -0.024558438 -0.022463739 -0.010636191
-0.044426087 -0.03828308 -0.029204257 -0.04854676 0.046943154 0.02905103 0.026445126 0.027942339
-0.02456888 0.023322588 0.0149760395 0.028378325 0.026323419 0.090057194 -0.013471384 -0.104800574
-0.0049734106 0.031841654 -0.01939928 -0.03710275 0.027296836 0.020199055 -0.08600949 0.036692053
-0.07572496 0.07044566 -0.04506132 -0.013307784 -0.077569515 -0.04992879 -0.021797009 0.021170063
0.04259322 0.020184798 -0.062848754 -0.044789143 0.039640665 -0.097916394 0.0793239 0.05703752
-0.06971452 -0.010164867 -0.06243513 0.041297168 -0.02104357 -0.07040877 -0.04511128 0.06337703
0.099640116 -0.02920218 -0.049147397 -0.10323833 -0.05743643 0.002753845 -0.06010535 -0.08881931
0.036909547 -2.0976553e-05 0.021940257 0.028982572 -0.037486814 -0.02000682 0.054348927 0.01859357
-0.09505633 -0.07438087 -0.03191338 -0.016323538 0.02700165 -0.029789232 -0.021878488 0.033013817
0.06448516 -0.006685181 -0.0011421324 0.0015798989 0.005581968 -0.05357112 -0.01770587 0.07355388
-0.02382861 0.088487774 -0.05657577 0.052785892 -0.021184126 0.083473116 -0.0060035735 -0.029281754
-0.071877085 -0.0618026 0.037650045 -0.003622802 -0.08895431 0.098436855 -0.009324317 0.080574736
-0.07850636 -0.022970008 0.037357174 -0.0026399978 -0.011922846 0.050155275 -0.006991961 0.06225381
-0.02883649 -0.04413867 -0.031157508 -0.0342497 0.0019850263 0.0918724 0.099306054 -0.05526657
0.046166312 -0.06634574 -0.022283237 -0.0018670612 0.012026988 0.058798462 -0.08275439 -0.0808842
-0.082928345 0.08430054 0.007623507 0.08987004 -0.008230804 -0.07523877 0.07951619 0.0011398698
0.019586716 0.0166183 0.007763334 -0.022246316 0.016536275 -0.047638208 -0.05216043 0.01661238
-0.02607719 -0.055381965 -0.016760977 0.019581087 -0.05328535 -0.0035105397 0.065179504 -0.07033769
0.0914464 -0.016500885 -0.019355176 -0.009906642 0.031059435 -0.024812251 0.07560249 -0.020858105
0.052071147 -0.05427529 0.073575675 0.05045346 0.0711752 0.098971896 -0.03763573 -0.06749094
-0.014220654 -0.012949421 0.065654464 0.07560673 0.008557082 -0.024380958 -0.029522758 0.05335317
-0.051981084 0.088752665 -0.041820273 -0.03389908 0.05459475 -0.06910977 0.029190319 0.047848362
0.04925705 -0.042490315 0.041439082 -0.051667485 -0.04940383 -0.07863285 0.06235251 0.027488614
-0.056040347 -0.014417229 -0.081106454 -0.028681556 -0.07098988 -0.067980304 0.04575286 0.07793069
0.044712078 0.084570065 -0.07620863 -0.03503912 0.06677042 0.016748155 0.032641012 -0.04722367

selfattention.value_layer.bias f4 [24]
00000000: c77d 4cbd f667 cc3d 05c0 c43d d6fe ceba
00000010: 12ee 0dbd c019 8e3d a674 56bd 35bd 3bbd
00000020: ef1a 9b3c 6e62 c0bb acfd 5abd 8bf7 4f3d
00000030: fdb5 4a3d 72fe 33bd b4c6 b9bd 68cf 05bd
00000040: 8f65 a0bc 920e 563d 079f fb3c 58e4 15bc
00000050: b918 81bd fd43 4cbc 4f4c a13d e513 c4bc
-0.049924638 0.099807665 0.09606937 -0.00157925 -0.03465087 0.06938505 -0.05235734 -0.04583474
0.018933741 -0.0058711087 -0.053464577 0.050773185 0.049489964 -0.04394383 -0.09071103 -0.0326685
-0.019579677 0.05225999 0.030715479 -0.00914868 -0.063035436 -0.012467382 0.07875883 -0.023935268

fc1.weight f4 [256, 144]
00000000: 7edb e23c 13b3 a7bc db33 673c c3e3 913d
00000010: 8c81 853d faf2 083d 3679 063d e038 1e3d
00000020: f40b 1f3d 9cbc 05bd c222 b2bd d4fc 9b3d
00000030: 4895 b03d eb08 133c c25c 33bc e59b 1abd
00000040: e738 413d 1593 853d 3d52 e8bc c756 01bd
00000050: 1695 50bd b19a 613d 001f 04bd a2d2 733c
00000060: 88c4 3fbd 124d febb 1257 94bd 63da 553d
00000070: 8c08 6cbd 7efb 98bd b569 53bc ea7b 9c3d
00000080: 48d4 313c cb41 a43b 871f 933d cef0 0cbd
00000090: f6bf 85bc 6b3b 873c 1563 b53b cc68 123d
000000a0: d6b1 0dbd 09f6 1f3d e7ef aabc 8860 20bd
000000b0: c875 b5ba 554d 023d c83b beba 538d 8ebc
000000c0: b3d5 473d 24b1 373d cbd2 3d3b 4a02 3f3c
000000d0: bca2 7dbd 55a1 17bc 4c6f 2fbd 2354 96bb
000000e0: abef 8f3c 1eee 363d 302f 97bc c3d2 a43c
000000f0: cb5e 0ebd 0f9a 6dbd e4b5 f83b 1aed 873d
00000100: 1818 863c 4d34 bb3c 690b f0bc d3b8 313d
00000110: 6e1e 793b 45bb 6c3b 175c 013d 423c 7a3d
00000120: 2291 a33d ec04 32bd bd0b 81bd e34f 833d
00000130: 929d e93c e960 a0bd 6b8d 9f3c 0a4c 403d
00000140: 221c 8cbd 71bb 623d 3ef3 033a 17b4 8cbd
00000150: 7dc5 9d3d ec2f 3c3d b4e8 95bd d2c7 99bb
00000160: ca5c 253d d2dc bebc f639 a3bd 264a 813c
00000170: 00e6 9b3d cd35 4f38 c534 413d 5e04 ac3d
00000180: 0643 20bd 214c 183d f882 183d ca51 613d
00000190: 548b 9abd 9141 6dbd 6290 5abc 5951 2abd
000001a0: 20d5 d1bc 5278 5abd 1b25 8dbc 38e6 9dbd
000001b0: b5d1 8fbd 38e1 9bbd 8b61 b33b ecf5 8a3c
000001c0: cfdf b4bc 6cf8 5dbc 11f2 f53c 3b0c 403d
000001d0: 5fda 833c b150 8fbd 7bdb fcbc f3ca 62bd
000001e0: a95c 503b f1b7 143d 011f 25bd 12a2 733d
000001f0: 92f2 c0bc 5d49 68bd e14a a03c 3397 4ebd
00000200: 14e3 87bd 1cc6 08bc f8ce d73c 2ca8 52bd
00000210: e1cd f93c e4ed 9c3d 0976 943b ebb5 e3bc
00000220: 76df 6c3c 4a9c 3d3d c225 8fbd 1826 5e3c
00000230: b112 81bd f992 143d d831 8cbd cd01 723d
00000240: 9bcc debc 6c36 5a3b 359a b83c 9d9b dd3c
00000250: dcc2 05bd b7d1 97bd ba7f 8f3d 950b f33c
00000260: cc69 233d e9b3 69bd 6e20 df3c 6c48 6bbc
00000270: 638d e13c 6663 81bd c4d1 2e3d 5b84 fd3c
00000280: de1f 73bb f5b8 383c 9746 bdbc 2a1b f4bc
00000290: eab4 f23a 276b b6bc 6ceb 2e3d e5a2 7bbd
000002a0: f32d 3f3c 4e64 253c 56d9 133d 2059 c3bb
000002b0: 7d04 5bbd 0a03 113d a4be 55bd 7cbe dfbc
000002c0: a488 8dbd 278e 0f3d 354a e8bc 57dc 423c
000002d0: eafe 6cbc 9ace 76bd e3b5 2a3d 721e 8abb
000002e0: 2272 b43c a835 ac3c 76e3 3e3b 8e09 933d
000002f0: 1499 29bd 1232 fe3c 060b 2f3d 13f4 593c
00000300: 3d7f 8dbd 377b 5fbd d513 923d d1e9 4c3d
00000310: a913 ad3d 6648 38bc c52d 3ebc cc38 783d
00000320: 3838 963d 0e1e d23b a391 d83c 16c6 f4bc
00000330: 586a 643d 49a1 8fbd b2d0 5f3d 2155 d3bc
00000340: 8907 34bd 19c5 09bd 795a a33b 7568 c6bc
00000350: 731b 7bbc a552 3e3d 8b18 5f3b 53de 843d
00000360: f52e 9d3d a54e 843d a9a2 e43c 85ae 103b
00000370: 926e 2b3c 44c1 a93d 05ca 753c f139 243b
00000380: f2fe 90bc 3aeb 863d 958e a9bb 3449 393d
00000390: e4fa 693c 95e6 59bd 199d a0bd a949 8dbb
000003a0: d1fa a03d 98fe af3b 0e65 7dbc c7ce a13c
000003b0: 891f 7cbd 203e 89bd 626b 33bd 4511 51bd
000003c0: d30a f4bb d179 423d a569 523d a9a4 12bd
000003d0: cf05 12bc 7b58 4cbd d0bd 09bd 74ca 263d
000003e0: 3fe6 6cbd 3a17 eb3c 962f abbd d274 5a3c
000003f0: d98f a5bd 1dfa e6bc 69e3 edbc e88c 3d3b
0.027692553 -0.020471131 0.014111484 0.0712352 0.0651885 0.033434846 0.03283044 0.03862846
0.03882976 -0.032650575 -0.08698036 0.076165825 0.08622223 0.008974294 -0.010947408 -0.03774633
0.047173407 0.06522194 -0.028359527 -0.031576898 -0.05092343 0.055079166 -0.032256126 0.014881762
-0.046818286 -0.0077606523 -0.0724317 0.052210223 -0.05762534 -0.07469843 -0.0129036205 0.07640822
0.010853834 0.005012726 0.07183748 -0.034409337 -0.016326886 0.016507825 0.005535493 0.035744473
-0.034593426 0.039052997 -0.020866347 -0.03915456 -0.0013844306 0.03181203 -0.0014513666 -0.017401373
0.048787784 0.04484667 0.0028964754 0.011658261 -0.061922774 -0.009254773 -0.04283075 -0.0045876666
0.017570337 0.04466068 -0.018455118 0.02012003 -0.03475837 -0.05800825 0.0075900424 0.066370204
0.01636891 0.022852087 -0.029302316 0.043389153 0.0038012522 0.0036122364 0.031581964 0.061092623
0.07986666 -0.043461725 -0.06301067 0.064117216 0.028517518 -0.07830984 0.019476613 0.046947517
-0.068413034 0.05535454 0.00050334993 -0.06870287 0.077036835 0.04594414 -0.07319775 -0.00469301
0.040371694 -0.023298655 -0.079700395 0.015782427 0.076122284 4.940275e-05 0.047169466 0.083992705
-0.03912642 0.037181977 0.037234277 0.05500964 -0.07546106 -0.057923857 -0.013340088 -0.041581485
-0.025614321 -0.053337403 -0.017229607 -0.07709926 -0.0702242 -0.076113164 0.0054742745 0.016962968
-0.022079377 -0.013547998 0.030022653 0.046886664 0.016095338 -0.069978125 -0.030866375 -0.05536933
0.003179351 0.036308233 -0.04031277 0.059480734 -0.023553167 -0.05671059 0.019566955 -0.050437164
-0.066351086 -0.008348014 0.026343808 -0.051429912 0.030493679 0.076625615 0.0045306724 -0.027796706
0.014457574 0.046291627 -0.069896236 0.013558887 -0.06302393 0.036272977 -0.068454444 0.05908375
-0.027197173 0.0033296598 0.02253447 0.027051741 -0.032656536 -0.07413047 0.07006784 0.029668609
0.039895818 -0.05705634 0.027237143 -0.014360528 0.027533239 -0.06317787 0.042680517 0.030946901
-0.0037097852 0.011274566 -0.023104949 -0.02979811 0.0018517051 -0.022267891 0.042704985 -0.061434645
0.01166867 0.010094715 0.03609594 -0.0059615523 -0.053471077 0.03540329 -0.052183762 -0.02731251
-0.06910828 0.035047676 -0.028355697 0.011893353 -0.014465073 -0.060255624 0.041677367 -0.004215055
0.022027079 0.021021679 0.0029127277 0.07179557 -0.041405752 0.031029735 0.042735122 0.013302821
-0.069090344 -0.054560866 0.07132689 0.050027672 0.084510155 -0.01124773 -0.011607592 0.06060104
0.073349416 0.006412274 0.026436632 -0.029879611 0.05576548 -0.070131846 0.054642387 -0.025797429
-0.0439525 -0.033635233 0.0049851504 -0.02421973 -0.015326369 0.046465535 0.0034041728 0.064877175
0.07674972 0.06460313 0.027909594 0.0022076678 0.010463374 0.082888156 0.0150017785 0.002505895
-0.017699692 0.06587835 -0.005174468 0.045235828 0.014281008 -0.053198416 -0.07842464 -0.0043117595
0.078603394 0.005370926 -0.015465988 0.01975192 -0.06155351 -0.067013025 -0.04380358 -0.05104186
-0.0074475794 0.047479454 0.05137028 -0.035801563 -0.008912518 -0.04988907 -0.033628285 0.040720418
-0.057836767 0.028697599 -0.08358686 0.013333516 -0.080840774 -0.028195435 -0.029039102 0.0028923098
