Model/GRU.pt (torch, 288579 bytes, 8 tensors)

gru1.weight_ih_l0 f4 [384, 45]
0.0030674164 -0.0013642047 -0.0002990978 -0.0014419765 -0.002364248 -0.000999498 -0.0010770407 -0.007531213
-0.0009373853 0.0019449787 -0.0018742494 -0.0008027303 -0.0016517921 0.0036219447 0.0012679829 -0.0054862117
-0.00088746636 0.006738479 0.002036567 0.0022079113 0.0081289895 0.0026586615 -0.007722999 0.0009122689
0.0045741545 0.005456471 0.002252853 -0.0037083155 -0.0059184036 -0.0076334355 -0.00452361 0.0031900166
-0.0034551225 -0.0065851286 0.00039164978 -0.0005373126 -0.011678485 -0.0034432039 -0.006425936 -0.0073901527
0.0045152386 0.0055336487 0.007848262 0.011400236 -0.0031543798 -0.0014449508 -0.0016793334 -0.002635498
0.003928785 -5.2542855e-05 -0.0013842246 0.001132179 9.484537e-05 -0.0010764286 0.00091065443 0.0004588002
-0.0028626216 -0.0010902972 -0.002507356 0.00080334715 -0.0013239007 -0.00073125184 0.0012000673 0.0010377778
-7.970189e-05 -0.0027853881 -0.0029684703 -0.005299313 0.0028345948 -0.00083923433 0.001140166 0.0011948143
-0.007479363 -0.0039103334 0.003803054 0.0027162314 -0.0009189851 -0.004460173 0.0030881732 -0.0029018964
-0.0022100518 -0.007396926 0.0019884547 0.0019172687 0.00047711784 -0.0037717891 0.00019726515 -0.0044045355
-0.002538117 -0.0014859238 0.00015687781 -0.0010511137 0.0001940731 -0.0018136796 -0.0003715221 -0.00042458717
0.0004099084 -0.0022878903 -0.0015061358 0.00070883613 -0.0017569468 0.0003042407 -0.0017468098 -7.787417e-05
0.0015730353 -0.002515509 -0.001394517 0.001079612 -0.0010111119 0.00057563535 0.0021625217 0.0048202043
-0.00314237 -0.0018293693 0.0049683563 0.003187662 0.00019247415 -0.0040881475 -0.00032120635 0.005962803
0.007007377 0.005064975 0.0061747762 0.00529179 0.0056186323 -0.0020746093 0.0017832997 0.0056744386
0.0039703315 0.005624517 -0.0062901853 0.0045704055 -0.0020621808 0.0027417964 0.00029704702 -9.344658e-07
-0.002852139 0.0004855037 -0.0029398361 0.0001061921 -0.00036230084 0.004037862 0.0004258881 -0.001736443
0.0003382812 -0.0017809393 -0.002226693 -0.00096112455 -0.0009880344 0.0005150108 -0.005522705 -0.0013980352
-7.1417184e-05 -0.00046588932 -0.00015230138 0.0040287916 0.010591114 0.002759651 -0.0021850257 0.007197745
0.0018323148 -0.0041261516 -0.0025151202 0.0015530528 0.0073532336 0.009168606 0.0031489404 0.008711356
0.007287051 0.0043847156 -4.6330737e-05 0.008895568 0.00703556 0.006502861 0.006847009 -0.004204355
0.0049950285 -0.0040134043 0.0007426476 -0.0028534785 -9.986696e-06 -2.4281893e-05 -0.00038513695 0.00072899746
4.949556e-05 0.0004585151 0.0013791854 0.0006304344 0.00044118293 0.00027556723 3.3886034e-05 -0.00082706736
7.035801e-05 0.0005274798 0.00032713552 0.00013544006 0.00024267082 0.00016563735 0.00026162725 -8.671809e-05
7.1936585e-05 -0.0011325919 0.0010651505 0.001827564 0.00017014425 -0.0022463782 -0.0013134388 0.002425798
0.0013164816 -7.910974e-05 -0.00023999428 -0.0011435052 -0.0004636517 0.00092296436 -0.0008987921 -0.0005981079
-0.00032678214 0.001465502 0.0012585833 -0.0003303978 -0.00031744852 -0.0009856414 0.0015561018 -0.00079460564
5.1403527e-05 0.0017656069 -0.0012440255 -0.0011837755 0.0055394145 -8.342965e-05 -0.00053555827 -0.00085268467
-0.0019534307 -0.0004592291 0.00042333853 -0.0008087476 0.0014559359 -0.0020105243 -0.0007550694 -0.00029292775
-0.00043015555 -0.0017241675 0.0011940245 0.0018420399 0.0002111092 0.0009641303 -0.00041765158 -0.00046908535
0.00920366 0.0009286919 0.004396339 0.004430962 -0.0030913304 0.00032919657 0.0007273618 0.0012174525
00000000: b506 493b 1dcf b2ba 3ad0 9cb9 b400 bdba
00000010: 80f1 1abb 9601 83ba 7d2b 8dba 65c8 f6bb
00000020: ddba 75ba a8ee fe3a 60a9 f5ba 526e 52ba
00000030: f280 d8ba 265e 6d3b 7232 a63a aec5 b3bb
00000040: dca4 68ba 75ce dc3b ed77 053b 9bb2 103b
00000050: 742f 053c f03c 2e3b 3611 fdbb 5425 6f3a
00000060: cae2 953b 32cc b23b 9aa4 133b 3607 73bb
00000070: 2bef c1bb e621 fabb cb3a 94bb 990f 513b
00000080: 566f 62bb 10c8 d7bb 5856 cd39 70da 0cba
00000090: 1e57 3fbc 60a7 61bb a890 d2bb 1829 f2bb
000000a0: 91f4 933b 9c53 b53b ff95 003c 0ec8 3a3c
000000b0: b6b9 4ebb 8164 bdba 141d dcba 52b8 2cbb
000000c0: 0abd 803b 7661 5cb8 df6e b5ba a065 943a
000000d0: b8e7 c638 f316 8dba fcb8 6e3a 1f8b f039
000000e0: d29a 3bbb 4ee8 8eba 7452 24bb b797 523a
000000f0: bc86 adba 7bb1 3fba 944b 9d3a 0b06 883a
00000100: a025 a7b8 0f8b 36bb ab8a 42bb dca5 adbb
00000110: 9cc4 393b 1000 5cba 9f71 953a 519b 9c3a
00000120: 7215 f5bb 4122 80bb a93c 793b cd02 323b
00000130: 0ce8 70ba a526 92bb f362 4a3b be2d 3ebb
00000140: 84d6 10bb ea61 f2bb bc50 023b dd4c fb3a
00000150: ac25 fa39 1f30 77bb f6d8 4e39 ec53 90bb
00000160: 8a56 26bb 54c3 c2ba 917f 2439 86c5 89ba
00000170: 1a80 4b39 fdb8 edba dac8 c2b9 209b deb9
00000180: f9e8 d639 6ef0 15bb 8869 c5ba 30d1 393a
00000190: 5a49 e6ba 7f82 9f39 36f5 e4ba 6050 a3b8
000001a0: 4e2e ce3a 3ddb 24bb 3ac8 b6ba c481 8d3a
000001b0: 4987 84ba 3ce6 163a 18b9 0d3b cef2 9d3b
000001c0: 38f0 4dbb 73c7 efba 98cd a23b 18e8 503b
000001d0: e3d2 4939 def5 85bb 9667 a8b9 9e63 c33b
000001e0: 249e e53b 17f8 a53b c755 ca3b c066 ad3b
000001f0: 811c b83b 2bf6 07bb 9cbd e93a a4f0 b93b
00000200: 8e19 823b de4d b83b e61d cebb 57c3 953b
00000210: a725 07bb b6af 333b fabc 9b39 00d8 7ab5
00000220: f4ea 3abb 348b fe39 44aa 40bb 73b3 de38
00000230: 32f3 bdb9 0b50 843b bc49 df39 5c99 e3ba
00000240: 565b b139 686e e9ba b6ed 11bb faf3 7bba
00000250: ef80 81ba ca01 073a cff7 b4bb 473e b7ba
00000260: cfc5 95b8 9b42 f4b9 17b3 1fb9 f403 843b
00000270: 5a86 2d3c 43db 343b a632 0fbb 10db eb3b
00000280: 482a f03a ab34 87bb b7d4 24bb ce8f cb3a
00000290: 65f3 f03b ec37 163c 745e 4e3b 13ba 0e3c
000002a0: 37c8 ee3b a9ad 8f3b 4053 42b8 b7be 113c
000002b0: 8e8a e63b f415 d53b e05c e03b b0c4 89bb
000002c0: 56ad a33b e082 83bb 3dae 423a 6d01 3bbb
000002d0: 888c 27b7 f8b0 cbb7 35ec c9b9 311a 3f3a
000002e0: 7499 4f38 db64 f039 c8c5 b43a bd43 253a
000002f0: 924e e739 027a 9039 da20 0e38 8dcf 58ba
00000300: 2b8d 9338 9246 0a3a 6383 ab39 ea04 0e39
00000310: 7475 7e39 f0ae 2d39 042b 8939 6cdc b5b8
00000320: a9dc 9638 7a73 94ba 859c 8b3a df8a ef3a
00000330: c068 3239 f937 13bb b127 acba 23fa 1e3b
00000340: cb8d ac3a b8e7 a5b8 f9a6 7bb9 abe1 95ba
00000350: 4716 f3b9 17f3 713a eb9c 6bba 57ca 1cba
00000360: f553 abb9 1616 c03a 0cf7 a43a 3e39 adb9
00000370: 386f a6b9 a330 81ba 1df6 cb3a 154d 50ba
00000380: 1e9a 5738 f06b e73a 920e a3ba ea28 9bba
00000390: fa83 b53b f4f6 aeb8 b564 0cba b386 5fba
000003a0: 2105 00bb b0c4 f0b9 89f3 dd39 2202 54ba
000003b0: 1ad5 be3a 00c3 03bb daef 45ba 1994 99b9
000003c0: 8086 e1b9 76fd e1ba d080 9c3a 9a70 f13a
000003d0: 325d 5d39 b0bd 7c3a 3ff8 dab9 92ef f5b9
000003e0: f3ca 163c 7573 733a 2a0f 903b 9a31 913b
000003f0: eb97 4abb 0498 ac39 6dac 3e3a ed92 9f3a

gru1.weight_hh_l0 f4 [384, 128]
-0.0014854074 0.0010240757 -0.0011975884 -0.0018628411 0.001519318 0.0006403688 -0.00023668344 -0.00023300237
0.00046913908 0.00031511064 0.00019124366 -0.00073682953 -0.00031076357 -0.0016440955 -0.0015557262 0.00083296327
0.0006124388 0.0013005409 0.0004133744 -0.00035561644 -0.00060035905 0.0005678166 0.0013713427 -0.000723394
0.0013439448 -8.124142e-05 0.0026505026 0.0018826483 0.00050500565 0.0014420034 0.00023047044 0.0007302406
-0.001318166 0.00040052822 -2.4359964e-05 0.0003923177 -0.000232769 0.00196872 0.0006468556 -0.00013407937
0.00065228523 -0.0018990748 0.0006261391 -7.349263e-05 -0.0015245478 -0.004072083 -0.0012446154 0.00020879031
0.0006873375 -0.0012447037 -0.0008565829 -0.0003022914 0.0012871326 0.0025789712 0.001758842 -0.00082545856
-0.0007264756 0.0010693045 0.002663214 -0.00018845228 0.0024416754 -0.0008188201 0.0007999878 0.0015993866
-0.0009758224 -0.0005030231 0.00021852953 0.0017511521 -0.0012930357 -0.0005484994 -0.0021320027 -0.002183793
-4.167299e-05 0.0011709749 0.0004557497 -0.0007812614 -0.0016263766 0.00043840628 0.0005763881 0.0016296039
0.001033657 -0.0007574799 0.00052897603 6.664448e-05 0.0005458819 -0.00057736516 0.00012183166 -0.0026913225
-0.0015956439 -0.0033904077 -0.0016677593 -0.0005567864 0.00067487755 -0.00012987314 -2.5501067e-06 -0.0017790727
0.0035813416 0.001063461 -2.3405766e-05 0.001685577 0.00041106594 -0.00055057474 0.0016446892 -0.002900005
-0.0005616635 0.0029474564 -0.00034651518 -0.00051391375 -0.0029319106 -0.0006906893 -0.00054682075 0.0009467001
-0.00019564551 -0.0010489824 -8.358815e-05 -0.0004932584 -0.00015735166 0.00049411954 0.00081842474 -0.0029091372
-0.0013984218 0.00069518073 -0.0012063978 0.001212847 -0.0034898496 -0.0004168243 0.00022697554 -0.0001329924
-0.00088884303 -0.0048904996 -0.00036504865 0.0022325208 -0.0022934405 -0.0027816433 -0.00044960555 0.00024452916
0.0007456456 -0.0011583717 -0.0006191912 0.0026839648 0.0016286466 0.0052035823 -0.00021503108 -0.0016291318
-0.002335573 0.0011275604 6.016587e-05 0.0006881333 0.0012070854 -0.0015439882 -0.0041679665 0.0058139726
-0.003286715 0.0028246702 -0.002310285 -0.0038057726 -0.00397887 -0.0042818002 0.0032684791 0.0011807203
0.0016716251 -0.0009432123 -0.0044433633 0.00025997774 0.0004117598 -0.005142612 -0.0015612371 -0.0015254588
-0.0035459008 0.005315282 -0.0010260632 -0.0017664066 0.0046356083 0.003582215 0.0034077398 -0.0028879945
-0.0020823982 0.0032288122 -0.0058275987 -0.00216304 -0.00049551734 -0.0021552902 0.00014551781 0.0028414212
0.0016378026 -0.0034366962 0.00048437307 -0.000118497825 -0.0017906759 0.005398549 0.0014645467 -0.0027935966
0.002207076 0.00079650874 -0.0023569383 -0.00461955 0.00021489858 0.0056056674 0.00048338406 0.0007329377
-0.0009804931 -0.0042840587 -0.00076348125 0.0016702871 0.0025278963 -0.00046014387 -0.0024426833 -0.00028226525
-0.004139725 0.0011437864 -0.0030771866 -0.0026869422 -0.0028817717 0.0037192563 -0.0015703759 -0.0017610352
0.004978951 -0.00077294867 -0.00088581356 0.001615602 0.003106435 0.00096368813 0.00036242185 0.0033214586
-0.0031636474 0.00062984094 0.0016635838 -0.0011407967 0.0024570574 -0.0013648017 0.0011117373 -0.0024043613
-0.0009452109 -0.0019543287 -0.0019376193 0.0013417988 0.0063722515 0.0050221183 0.001903195 -0.0020651023
-0.004457636 0.0024307338 0.0022693435 -0.001994838 0.0019088157 -0.0018107825 -0.0016560459 0.0028448557
0.005578376 -0.001224156 0.0019815152 -0.004527164 0.0041873935 -0.00055021263 -0.0041054934 -0.002391988
00000000: 00b2 c2ba 473a 863a 66f8 9cba 932a f4ba
00000010: da23 c73a 6cde 273a 3a2e 78b9 1952 74b9
00000020: c8f6 f539 6f35 a539 9488 4839 cb27 41ba
00000030: fbed a2b9 b17e d7ba 82e9 cbba 385b 5a3a
00000040: 128c 203a e976 aa3a 2cba d839 0872 bab9
00000050: 6a61 1dba 87d9 143a a0be b33a 26a2 3dba
00000060: 4e27 b03a 2860 aab8 0eb4 2d3b 32c3 f63a
00000070: 5b62 043a 9b01 bd3a 70aa 7139 9e6d 3f3a
00000080: 50c6 acba fdfd d139 a058 ccb7 feaf cd39
00000090: 7413 74b9 a405 013b bf91 293a a897 0cb9
000000a0: 1ffe 2a3a 60ea f8ba 7c23 243a 0e20 9ab8
000000b0: 56d3 c7ba 1c6f 85bb 5d22 a3ba b9ee 5a39
000000c0: 702e 343a 5325 a3ba 4e8c 60ba dd7c 9eb9
000000d0: 01b5 a83a f503 293b f288 e63a 9663 58ba
000000e0: f470 3eba e827 8c3a 5189 2e3b 469b 45b9
000000f0: 8404 203b 16a6 56ba 46b6 513a 82a2 d13a
00000100: 55ce 7fba 4fdd 03ba 1325 6539 ea86 e53a
00000110: 147b a9ba 2cc9 0fba 12b9 0bbb f81d 0fbb
00000120: 08ca 2eb8 667b 993a b0f1 ee39 91cd 4cba
00000130: 252c d5ba e5d9 e539 c018 173a 6f98 d53a
00000140: c67b 873a 9e91 46ba fbaa 0a3a 7cc3 8b38
00000150: 8419 0f3a 525a 17ba e07f ff38 e660 30bb
00000160: ed24 d1ba 9a31 5ebb b798 daba 4ef5 11ba
00000170: 44ea 303a 8e2e 08b9 8022 2bb6 c62f e9ba
00000180: f1b4 6a3b d463 8b3a 8057 c4b7 94ee dc3a
00000190: 5684 d739 7254 10ba 9d92 d73a 030e 3ebb
000001a0: 993c 13ba 1d2a 413b 7bac b5b9 2bb8 06ba
000001b0: 4c25 40bb 600f 35ba 8558 0fba f82b 783a
000001c0: 3126 4db9 027e 89ba 0c4c afb8 034e 01ba
000001d0: c4fe 24b9 cd87 013a 8e8b 563a 39a7 3ebb
000001e0: 404b b7ba ca3c 363a fe1f 9eba 64f8 9e3a
000001f0: f6b5 64bb 3689 dab9 4800 6e39 e073 0bb9
00000200: 3f01 69ba 7c40 a0bb 0064 bfb9 7c4f 123b
00000210: 8c4d 16bb 3b4c 36bb 09b9 ebb9 2634 8039
00000220: 6e77 433a 81d4 97ba 3851 22ba 75e5 2f3b
00000230: 5078 d53a d082 aa3b f779 61b9 9888 d5ba
00000240: 6a10 19bb a6ca 933a 9c5a 7c38 d863 343a
00000250: 1137 9e3a a65f caba 7093 88bb 2383 be3b
00000260: ed65 57bb 1a1e 393b 2768 17bb 456a 79bb
00000270: 2e61 82bb 584e 8cbb fb33 563b 66c2 9a3a
00000280: 6e1a db3a e841 77ba a299 91bb 9f4d 8839
00000290: 77e1 d739 5b83 a8bb 6da2 ccba e7f1 c7ba
000002a0: 5862 68bb d12b ae3b f87c 86ba c586 e7ba
000002b0: 4de6 973b 98c3 6a3b 6354 5f3b 8244 3dbb
000002c0: d878 08bb 7b9a 533b 71f5 bebb cac1 0dbb
000002d0: 9be5 01ba c53f 0dbb 2496 1839 2337 3a3b
000002e0: 89ab d63a 323a 61bb 74f3 fd39 0982 f8b8
000002f0: 1db5 eaba 50e6 b03b 08f6 bf3a c614 37bb
00000300: 97a4 103b cccc 503a dd76 1abb 985f 97bb
00000310: 6656 6139 bfaf b73b b66e fd39 9e22 403a
00000320: e483 80ba 4a61 8cbb 5c24 48ba 89ed da3a
00000330: 10ab 253b 773f f1b9 6d15 20bb 00fd 93b9
00000340: 88a6 87bb 1aeb 953a a0aa 49bb 6917 30bb
00000350: 1bdc 3cbb c4be 733b 12d5 cdba 89d2 e6ba
00000360: 7826 a33b b59f 4aba f135 68ba 9cc2 d33a
00000370: 5595 4b3b 04a0 7c3a 7003 be39 d4ac 593b
00000380: 3255 4fbb e91b 253a 9c0c da3a c986 95ba
00000390: 9506 213b 25e3 b2ba b7b7 913a 7d92 1dbb
000003a0: 08c8 77ba 3214 00bb b7f7 fdba 4cdf af3a
000003b0: 52ce d03b 9590 a43b a174 f93a ab56 07bb
000003c0: 5c11 92bb f24c 1f3b 44b9 143b d4bb 02bb
000003d0: 3a31 fa3a c757 edba ae0f d9ba c270 3a3b
000003e0: cfca b63b dc73 a0ba 4fdc 013b 9b58 94bb
000003f0: 6736 893b 253c 10ba 6087 86bb e6c2 1cbb

gru1.bias_ih_l0 f4 [384]
-0.004268606 0.0016659294 -0.0053573316 -0.002371875 -0.00048572046 -0.00064886786 -0.001472644 -0.001440348
-0.0053523756 -0.007383181 0.18188417 -0.002783738 -0.008869714 0.0034691703 -0.007971481 -0.0028974714
-0.0009815503 0.073271364 -0.005367959 -0.004136685 -0.115970254 0.029518913 -0.001411508 -0.008972141
-0.015750986 -0.011494205 -0.0060811373 -0.0049003586 -0.008033835 -0.0034761373 -0.008087925 -0.0019558824
-0.003720929 0.31443435 -0.0005722438 -0.0020352637 -0.006881685 -0.0048392154 0.090645164 -0.0069643455
-0.007606238 -0.0048524537 0.15254991 -0.0041362387 -0.0005383733 -0.002163421 -0.003001043 -0.0011249146
-0.003885803 -0.007863469 -0.006215177 0.25356486 -0.0052702306 0.14894731 -0.09432935 -0.003450377
-0.002489645 -0.007186521 -0.11265024 -0.00710036 -0.023799194 -0.00385543 -0.0332693 -0.0010054463
0.00010470208 -0.0034458032 -0.0014521431 -0.006595199 0.3541565 -0.012368893 -0.0075935284 -0.005368958
-0.0033494206 -0.0007726811 -0.00479237 -0.01318296 -0.012226256 -0.003907604 -0.011361931 -0.007156005
0.00067492557 -0.0044302535 -0.0036512709 -0.00399371 0.5555918 -0.005992827 0.00010666851 -0.011819942
-0.0019821094 0.013495632 0.2803608 -0.0022700962 -0.012462488 -0.004724406 -0.0026377602 -0.005206717
0.113033034 -0.016130812 -0.007510965 -0.001626081 -0.004571515 -0.0058975103 -0.0059972946 -0.009690422
0.060372073 0.14013155 -0.0034983575 0.1895484 -0.0003059998 -0.011347499 -0.0009054629 -0.00383412
-0.007151001 -0.0059598684 -0.008003747 -0.006308058 0.0025674987 -0.0042628045 -0.008349126 0.27892572
-0.010637668 -0.00039764267 -0.0012663709 -0.0032039557 -0.017026478 -0.012055912 -0.0009767251 -0.0004783221
-0.0060290163 -0.01192111 -0.0013931025 0.0041306987 -0.0050710253 -0.00484289 -0.003964076 -0.0056057284
0.0011373372 -0.008379749 -0.2960509 -0.022163613 -0.0065631536 -0.008587401 -0.0012204283 -0.00023381441
-0.0049075675 -0.0817637 0.0011285855 0.0024075091 0.25150907 -0.0330205 -0.0012968509 0.008569001
-0.008989124 -0.013810873 -0.0066487705 0.0019160283 -0.016510377 -0.00036468502 -0.03510851 -0.0041596205
-0.0071996017 -0.38259196 -0.019733101 -0.0028887345 -0.014780547 -0.012378074 -0.1852973 -0.009951132
-0.00958668 -0.009456653 -0.23908916 -0.0012153708 -0.011923879 -0.019157346 -0.0042834943 -0.00701936
-0.006525502 0.0003170992 -0.010580956 -0.33786577 -0.0019933006 0.030204995 0.15321384 -0.0049178833
-0.0043832334 0.011123216 0.15698776 -0.011436605 0.080593556 -0.012398513 0.007936074 -0.006192429
-0.0028664088 -0.0010459509 0.0016163993 -0.022936314 -0.4824361 -0.018473683 0.0103618745 -0.0038989806
-0.00058237417 -0.010847134 -0.005501577 -0.0041660983 0.02344743 0.0006661031 0.004605498 -0.0064363996
-0.0077453996 0.011292511 -0.010193076 -0.0004675982 -0.5833049 -0.021122536 -0.0020279954 0.008274587
-0.010222123 -0.04453122 -0.46176943 -0.006037945 -0.01305977 -0.0016603828 -0.006246989 -0.014940484
-0.08975106 -0.02486161 0.0031897745 -0.005768603 -0.002342616 -0.0062281033 -0.005081879 -0.0046587274
-0.1834593 0.06708171 0.009439003 0.037014965 -0.02084942 -0.0068833223 -0.0025849156 -0.029334407
-0.010321585 -0.0068755015 -0.007512239 -0.00084862765 -0.007128717 0.0014383267 -0.0029227862 -0.38053656
-0.010112161 -0.0077180737 -0.0055440604 -0.006081007 -0.00036988826 -0.0033984033 -0.019814169 -0.00501949
00000000: aadf 8bbb 515b da3a 8e8c afbb 7671 1bbb
00000010: 4ca8 feb9 c918 2aba bc05 c1ba 0fca bcba
00000020: fb62 afbb 9cee f1bb d83f 3a3e 606f 36bb
00000030: 4752 11bc 055b 633b d19a 02bc 81e3 3dbb
00000040: 5da7 80ba 4c0f 963d b4e5 afbb 078d 87bb
00000050: d081 edbd a6d1 f13c 5902 b9ba e3ff 12bc
00000060: 3608 81bc 3152 3cbc 4744 c7bb 3093 a0bb
00000070: 59a0 03bc e8cf 63bb 3783 04bc 432e 00bb
00000080: d4da 73bb 8afd a03e a202 16ba 0f62 05bb
00000090: c27f e1bb 4892 9ebb 2ca4 b93d 2a35 e4bb
000000a0: c03d f9bb 5501 9fbb 0b36 1c3e 4989 87bb
000000b0: 9f21 0dba 2ec8 0dbb 26ad 44bb df71 93ba
000000c0: f5a8 7ebb c8d5 00bc afa8 cbbb 41d3 813e
000000d0: e6b1 acbb a585 183e bf2f c1bd b81f 62bb
000000e0: 5029 23bb e87c ebbb 2bb5 e6bd 23aa e8bb
000000f0: 87f6 c2bc 62ab 7cbb 6445 08bd 2ec9 83ba
00000100: 8093 db38 fcd2 61bb d655 beba 8a1c d8bb
00000110: 0054 b53e e6a6 4abc 22d3 f8bb 16ee afbb
00000120: f481 5bbb c08d 4aba 5009 9dbb 58fd 57bc
00000130: a250 48bc 5c0b 80bb 6527 3abc ec7c eabb
00000140: 7ded 303a a92b 91bb 294a 6fbb abdd 82bb
00000150: 443b 0e3f 7a5f c4bb 38b3 df38 6ea8 41bc
00000160: 47e6 01bb c91c 5d3c 738b 8f3e e5c5 14bb
00000170: 772f 4cbc 31cf 9abb 46de 2cbb 1c9d aabb
00000180: dd7d e73d c424 84bc 8b1e f6bb 3922 d5ba
00000190: a6cc 95bb e73f c1bb f484 c4bb 93c4 1ebc
000001a0: b548 773d a57e 0f3e b344 65bb fa18 423e
000001b0: 996e a0b9 dcea 39bc 965c 6dba dc45 7bbb
000001c0: f252 eabb 004b c3bb 2622 03bc d3b3 cebb
000001d0: 7b43 283b ffae 8bbb c6ca 08bc 5acf 8e3e
000001e0: 9d49 2ebc b27a d0b9 5bfc a5ba 75f9 51bb
000001f0: 1d7b 8bbc 2986 45bc 7505 80ba 4ec7 fab9
00000200: 0e8f c5bb c250 43bc c398 b6ba d05a 873b
00000210: d82a a6bb 1bb1 9ebb 14e5 81bb 42b0 b7bb
00000220: b412 953a 374b 09bc fc93 97be 7790 b5bc
00000230: b90f d7bb 2cb2 0cbc c7f6 9fba 142c 75b9
00000240: a9cf a0bb ba73 a7bd 0ced 933a 4dc7 1d3b
00000250: ccc5 803e 8140 07bd 18fb a9ba ff64 0c3c
00000260: 1e47 13bc 0047 62bc eedd d9bb 3e23 fb3a
00000270: c540 87bc 3233 bfb9 f1cd 0fbd 6d4d 88bb
00000280: a3ea ebbb 18e3 c3be 50a7 a1bc ec50 3dbb
00000290: 1b2a 72bc 68cd 4abc 93be 3dbe 130a 23bc
000002a0: 7311 1dbc 14f0 1abc cad3 74be 144d 9fba
000002b0: 605c 43bc deef 9cbc 8e5c 8cbb a902 e6bb
000002c0: e1d3 d5bb 5640 a639 bf5b 2dbc befc acbe
000002d0: 09a2 02bb 7770 f73c 17e4 1c3e 3226 a1bb
000002e0: 3aa1 8fbb 263e 363c 66c1 203e 9960 3bbc
000002f0: 3c0e a53d 2223 4bbc 4f06 023c dce9 cabb
00000300: 5cda 3bbb 4a18 89ba 5cdd d33a f0e4 bbbc
00000310: dd01 f7be 1f56 97bc dac4 293c 0a86 7fbb
00000320: 78aa 18ba 2db8 31bc 9346 b4bb c483 88bb
00000330: d314 c03c 6c9d 2e3a b8e9 963b 6fe8 d2bb
00000340: 1fcd fdbb 3904 393c dc00 27bc f827 f5b9
00000350: 7853 15bf 2b09 adbc 1ee8 04bb 2292 073c
00000360: b17a 27bc 5e66 36bd 0b6d ecbe f4d9 c5bb
00000370: a5f8 55bc 34a1 d9ba 8bb3 ccbb efc8 74bc
00000380: 67cf b7bd 93aa cbbc 890b 513b 8d06 bdbb
00000390: 9386 19bb 1e15 ccbb e485 a6bb 3da8 98bb
000003a0: c1dc 3bbe 2362 893d 0ca6 1a3c 019d 173d
000003b0: 67cc aabc 7e8d e1bb b067 29bb b64e f0bc
000003c0: de1b 29bc e34b e1bb 3a29 f6bb 7076 5eba
000003d0: 0398 e9bb 3c86 bc3a 378c 3fbb b0d5 c2be
000003e0: 7aad 25bc e5e7 fcbb f3aa b5bb 2f43 c7bb
000003f0: 90ed c1b9 bfb7 5ebb 5351 a2bc 897a a4bb

gru1.bias_hh_l0 f4 [384]
-0.0042686174 0.0016660844 -0.0053573376 -0.0023719047 -0.00048572343 -0.00064885005 -0.0014726989 -0.0014403454
-0.005352376 -0.007383194 0.18188418 -0.002784218 -0.008869734 0.003469205 -0.007971441 -0.0028974705
-0.000981559 0.07327137 -0.005367953 -0.004136684 -0.1159703 0.02951892 -0.0014115074 -0.00897214
-0.015750993 -0.011494104 -0.006081146 -0.0049003866 -0.008033832 -0.00347614 -0.008089225 -0.0019558538
-0.0037209287 0.3144344 -0.0005719031 -0.002035263 -0.006881679 -0.004839212 0.09064518 -0.00696438
-0.007606242 -0.004852447 0.15254988 -0.0041362415 -0.0005383391 -0.0021634318 -0.003001047 -0.0011249046
-0.0038857854 -0.00786347 -0.0062151775 0.25356492 -0.005270381 0.14894734 -0.09432931 -0.0034503785
-0.0024895233 -0.007186524 -0.11265022 -0.0071003586 -0.023799209 -0.0038553965 -0.033269282 -0.0010055213
0.00010470225 -0.0034458274 -0.0014521545 -0.006595202 0.35415646 -0.012369521 -0.0075935284 -0.0053689494
-0.0033494185 -0.00077267387 -0.004792368 -0.01318296 -0.012226245 -0.003907613 -0.011361953 -0.007156069
0.0006749248 -0.0044302302 -0.0036512655 -0.0039938446 0.5555918 -0.0059929155 0.000106566935 -0.011815032
-0.0019821036 0.013495619 0.2803608 -0.002270101 -0.012462526 -0.0047243396 -0.002637757 -0.0052069873
0.11303302 -0.016130943 -0.00751098 -0.0016260816 -0.0045715114 -0.0058975136 -0.0059974426 -0.009689762
0.060372047 0.14013158 -0.0034983126 0.18954842 -0.00030599633 -0.011347519 -0.0009054819 -0.003834123
-0.007151029 -0.0059598666 -0.008003858 -0.006308059 0.002567412 -0.0042628134 -0.008349233 0.27892572
-0.010637668 -0.00039764302 -0.0012663702 -0.003203867 -0.017026516 -0.012055919 -0.0009767186 -0.00047832238
-0.006029001 -0.011921108 -0.0013931065 0.0041307444 -0.005071025 -0.00484289 -0.003964077 -0.005605724
0.0011375498 -0.008379758 -0.29605117 -0.02216361 -0.006563114 -0.008587662 -0.0012205276 -0.00023442927
-0.004907586 -0.08176367 0.0011284847 0.0024075415 0.25150597 -0.033020537 -0.0012967996 0.00857061
-0.008990367 -0.013811033 -0.006648958 0.0019162236 -0.016510384 -0.00036469052 -0.03510837 -0.0041596037
-0.0071996017 -0.38259277 -0.019732982 -0.002888743 -0.014780553 -0.012378071 -0.1853051 -0.009951132
-0.00958668 -0.009456653 -0.23910053 -0.0012154375 -0.011923881 -0.019157361 -0.004281002 -0.0070193578
-0.006525502 0.00031705684 -0.010580959 -0.3378657 -0.0019933009 0.03014153 0.15321349 -0.004917884
-0.0043832324 0.0111228535 0.15695648 -0.011436602 0.08061875 -0.01239852 0.0079361005 -0.0061924746
-0.0028664037 -0.0010459401 0.0016163923 -0.022936337 -0.48243585 -0.018473674 0.010362064 -0.003898938
-0.00058237364 -0.010847151 -0.005501337 -0.0041660946 0.023447724 0.0006661051 0.004605517 -0.006436404
-0.007745437 0.011292577 -0.010193085 -0.0004676246 -0.5833047 -0.021122528 -0.002027998 0.008274585
-0.010222145 -0.044535004 -0.4617697 -0.0060379445 -0.013059765 -0.001660382 -0.006246986 -0.014940465
-0.08975107 -0.02486138 0.0031898299 -0.005767915 -0.0023426153 -0.0062276884 -0.0050818794 -0.0046587256
-0.1834512 0.06744448 0.00943863 0.03701503 -0.020849414 -0.0068834242 -0.0025847587 -0.029334554
-0.010321585 -0.006875502 -0.007512485 -0.0008486003 -0.0071287123 0.0014383424 -0.0029227845 -0.3805362
-0.010112154 -0.0077187135 -0.00554406 -0.006081005 -0.00036872027 -0.0033984066 -0.01981418 -0.0050194906
00000000: c2df 8bbb 8460 da3a 9b8c afbb f571 1bbb
00000010: b2a8 feb9 9717 2aba 9307 c1ba f9c9 bcba
00000020: fc62 afbb b8ee f1bb d93f 3a3e 6d77 36bb
00000030: 5c52 11bc 9a5b 633b a69a 02bc 7de3 3dbb
00000040: a8a7 80ba 4d0f 963d a7e5 afbb 058d 87bb
00000050: d681 edbd aad1 f13c 5402 b9ba e2ff 12bc
00000060: 3a08 81bc c451 3cbc 5a44 c7bb 6c93 a0bb
00000070: 55a0 03bc f4cf 63bb ab88 04bc c82d 00bb
00000080: d3da 73bb 8cfd a03e c4eb 15ba 0c62 05bb
00000090: b57f e1bb 4192 9ebb 2ea4 b93d 7435 e4bb
000000a0: c83d f9bb 4701 9fbb 0936 1c3e 4f89 87bb
000000b0: 531f 0dba 5dc8 0dbb 37ad 44bb 8971 93ba
000000c0: a9a8 7ebb c9d5 00bc b0a8 cbbb 43d3 813e
000000d0: 29b3 acbb a785 183e ba2f c1bd bf1f 62bb
000000e0: 4527 23bb ef7c ebbb 29b5 e6bd 20aa e8bb
000000f0: 8ff6 c2bc d2aa 7cbb 5f45 08bd b2cb 83ba
00000100: 9893 db38 64d3 61bb 3856 beba 901c d8bb
00000110: ff53 b53e 88a9 4abc 22d3 f8bb 03ee afbb
00000120: eb81 5bbb 448d 4aba 4c09 9dbb 58fd 57bc
00000130: 9750 48bc 6f0b 80bb 7c27 3abc 757d eabb
00000140: 70ed 303a 772b 91bb 124a 6fbb ccde 82bb
00000150: 443b 0e3f 3860 c4bb b07c df38 d693 41bc
00000160: 2ee6 01bb bb1c 5d3c 738b 8f3e fac5 14bb
00000170: 9f2f 4cbc a2ce 9abb 38de 2cbb 609f aabb
00000180: db7d e73d 0a25 84bc ab1e f6bb 3f22 d5ba
00000190: 9ecc 95bb ee3f c1bb 3286 c4bb cfc1 1ebc
000001a0: ae48 773d a77e 0f3e f243 65bb fb18 423e
000001b0: 226e a0b9 f2ea 39bc dd5d 6dba e945 7bbb
000001c0: 2e53 eabb fc4a c3bb 9d22 03bc d6b3 cebb
000001d0: 0742 283b 12af 8bbb 39cb 08bc 5acf 8e3e
000001e0: 9d49 2ebc be7a d0b9 55fc a5ba f8f7 51bb
000001f0: 317b 8bbc 3086 45bc 3d05 80ba 58c7 fab9
00000200: ed8e c5bb c050 43bc e698 b6ba 325b 873b
00000210: d72a a6bb 1bb1 9ebb 17e5 81bb 39b0 b7bb
00000220: d619 953a 414b 09bc 0594 97be 7690 b5bc
00000230: 640f d7bb 44b3 0cbc 1cfa 9fba 21d1 75b9
00000240: d1cf a0bb b673 a7bd aae9 933a d8c7 1d3b
00000250: 64c5 803e 8b40 07bd 60f9 a9ba be6b 0c3c
00000260: 554c 13bc ac47 62bc 81df d9bb cb29 fb3a
00000270: c940 87bc ef33 bfb9 cbcd 0fbd 494d 88bb
00000280: a3ea ebbb 33e3 c3be 10a7 a1bc 1151 3dbb
00000290: 222a 72bc 65cd 4abc 9fc0 3dbe 130a 23bc
000002a0: 7311 1dbc 14f0 1abc c5d6 74be 514f 9fba
000002b0: 625c 43bc e6ef 9cbc a647 8cbb a402 e6bb
000002c0: e1d3 d5bb a63a a639 c25b 2dbc bcfc acbe
000002d0: 0aa2 02bb 5feb f63c ffe3 1c3e 3326 a1bb
000002e0: 38a1 8fbb a13c 363c 33b9 203e 9660 3bbc
000002f0: 711b a53d 2923 4bbc 6b06 023c 3eea cabb
00000300: 46da 3bbb ed17 89ba 20dd d33a fce4 bbbc
00000310: d501 f7be 1a56 97bc a5c5 293c 5385 7fbb
00000320: 6faa 18ba 40b8 31bc 8f44 b4bb bc83 88bb
00000330: 7115 c03c 8e9d 2e3a e0e9 963b 78e8 d2bb
00000340: 6fcd fdbb 8004 393c e600 27bc 832b f5b9
00000350: 7553 15bf 2709 adbc 29e8 04bb 2092 073c
00000360: c97a 27bc 566a 36bd 146d ecbe f3d9 c5bb
00000370: a0f8 55bc 2da1 d9ba 84b3 ccbb dac8 74bc
00000380: 69cf b7bd 18aa cbbc 770c 513b c700 bdbb
00000390: 9086 19bb a311 ccbb e585 a6bb 39a8 98bb
000003a0: a2da 3bbe 5520 8a3d 7ca4 1a3c 129d 173d
000003b0: 64cc aabc 598e e1bb 0e65 29bb 054f f0bc
000003c0: de1b 29bc e44b e1bb 4b2b f6bb 9a74 5eba
000003d0: f997 e9bb c386 bc3a 308c 3fbb a4d5 c2be
000003e0: 73ad 25bc 43ed fcbb f2aa b5bb 2b43 c7bb
000003f0: cc50 c1b9 cdb7 5ebb 5951 a2bc 8a7a a4bb

fc1.weight f4 [32, 128]
-2.601e-42 6.3884e-41 -5.366e-42 9.5302e-41 5.5645567e-35 4.358e-42 -8.9574e-41 4.9776e-41
5.1975472e-36 -7.854e-42 5.9974e-41 5.786e-42 -7.92998e-37 9.2102e-41 -1.1769087e-37 -7.0218e-41
-2.151933e-36 -5.5839e-41 -4.0572e-41 4.9638e-41 -5.725e-41 3.7518e-41 -3.1414e-41 1.2330501e-34
-7.1131e-41 6.0952e-41 8.2075e-41 -5.3786562e-34 1.1426e-41 1.15983e-40 -6.4943e-41 -1.3693e-41
1.0241e-40 5.6905e-41 -6.566094e-29 -9.982e-40 -2.4102e-41 8.7847e-41 -4.5985e-41 -2.0947e-41
-5.4236e-41 -5.3396e-41 1.06876e-40 1.1720009e-30 -3.5782e-41 8.1233e-41 6.19413e-37 -5.099e-41
-5.743e-42 -7.7974e-41 -3.3777e-41 -7.2961e-41 7.444e-42 -2.0889e-41 5.6032e-41 8.5612e-41
3.5013e-41 1.1238355e-34 -8.836e-41 3.237665e-35 5.0962e-41 -2.3046e-41 -8.8485e-41 6.2128e-41
9.2407e-41 -4.119e-41 9.5043e-41 2.814e-41 -9.2993e-41 1.0191e-40 5.202e-41 -1.6556431e-36
-9.9917e-41 -6.8057e-41 -1.7733e-41 5.1613e-41 1.2215e-41 -8.3117e-41 5.7383e-41 5.305e-41
4.9764e-41 -4.3044e-41 2.2579e-41 3.9082323e-26 -4.4672e-41 3.7576e-41 -3.475e-42 -1.0148e-41
1.0097e-40 7.1124e-41 3.2294e-41 9.0017e-41 9.0314e-41 2.5644e-41 5.4667e-41 -1.1885663e-37
-4.637e-41 5.2997e-41 4.898e-41 2.9875502e-28 4.448e-42 -3.4776e-41 -2.0571e-41 -4.057e-42
-6.641231e-34 1.5881e-41 -3.4769e-41 1.9882e-41 6.939e-41 -5.13809e-40 -4.937e-41 7.286e-41
2.7918e-41 -2.5787e-41 1.15334e-40 1.7785e-41 3.9016e-41 3.8395532e-29 6.7624e-41 -4.1214e-41
-3.451e-41 -9.253e-42 -1.8532e-41 -3.3788e-41 -3.4806134e-29 -2.7554e-41 6.6416e-41 -2.237e-41
-1.0166e-40 -1.277e-42 1.6433e-41 9.6231e-41 -1.44749e-25 4.2999e-41 -5.0733e-41 9.221715e-29
-8.3089e-41 -2.37985e-40 -4.407e-42 -4.0992e-41 1.9495e-41 1.04299e-40 -1.0008e-40 2.9502e-41
-1.06193e-40 8.9785e-41 -1.0404e-40 2.4726846e-21 5.0818e-41 3.7173376e-21 -7.3368e-41 -4.3083e-41
6.6625e-41 1.5682e-41 7.7709e-41 -5.424e-41 6.8238e-41 -9.1599e-41 -3.1323e-41 -7.518e-41
-3.8761e-41 -7.7248e-41 -4.4254e-41 4.825e-42 7.089e-41 -5.6521e-41 -3.09e-42 -4.1453e-41
1.7316e-41 8.3987e-41 -9.862e-42 -6.613e-42 1.8927e-41 -7.0386e-41 -7.5024e-41 -3.761e-42
4.0314e-41 8.126e-41 -1.5571e-41 8.5397e-41 4.2971e-41 -3.712485e-36 -1.02564e-40 -2.5902e-41
-1.5145e-41 2.55e-43 2.2585e-41 -2.142e-41 3.879191e-39 1.3768e-41 -8.7108e-41 3.358e-41
8.0503e-41 -1.8413e-41 -6.7084e-41 2.1964e-41 -2.3929e-41 -5.0284e-41 -6.5506e-41 2.3615e-41
-1.1767e-41 7.454e-42 -3.6386e-41 1.05843e-40 -6.9444e-41 5.6398e-41 2.535e-42 -5.4656e-41
-2.6452e-41 -4.0165e-41 8.3806e-41 7.1916e-41 1.13158e-40 9.2329e-41 -6.4663e-41 -9.2899e-41
1.9362e-41 8.5820495e-35 4.8164e-41 -5.0892e-41 -3.6322e-41 5.3584e-41 2.5082e-41 -3.668e-41
-3.4727e-41 7.6179e-41 9.0071e-41 -9.305384e-36 -3.2598e-41 1.00762e-40 1.8513e-41 1.1709e-41
7.6511e-41 -1.6703115e-36 -4.1663e-41 -2.3231e-41 -6.0085e-41 -7.3043e-41 8.8603e-41 4.2144e-41
3.999e-41 -1.04771e-40 2.9234e-41 1.17612e-40 6.8568e-41 8.0364e-41 -3.8086e-41 7.5578e-41
-1.04031e-40 8.036038e-35 -8.376e-42 -9.567e-41 6.6164e-41 8.159839e-29 1.9596e-41 -2.0497e-41
00000000: 4007 0080 15b2 0000 f50e 0080 aa09 0100
00000010: 69ee 9306 260c 0000 b2f9 0080 c18a 0000
00000020: 4714 dd04 e515 0080 2fa7 0000 2110 0000
00000030: efeb 8683 be00 0100 4831 2082 bdc3 0080
00000040: f310 3784 a89b 0080 1971 0080 5f8a 0000
00000050: 979f 0080 9668 0000 9257 0080 85e6 2307
00000060: 49c6 0080 e9a9 0000 cbe4 0000 8cbc 3288
00000070: da1f 0000 5043 0100 09b5 0080 2c26 0080
00000080: 7a1d 0100 a19e 0000 6378 a690 93de 0a80
00000090: 3043 0080 e2f4 0000 3080 0080 643a 0080
000000a0: 3097 0080 d994 0080 ed29 0100 032b be0d
000000b0: bf63 0080 72e2 0000 7bc6 5203 248e 0080
000000c0: 0210 0080 5cd9 0080 285e 0080 63cb 0080
000000d0: c014 0000 3b3a 0080 329c 0000 a7ee 0000
000000e0: 9a61 0000 2462 1507 50f6 0080 d024 2c06
000000f0: 108e 0000 3e40 0080 a9f6 0080 30ad 0000
00000100: 9801 0100 d272 0080 f108 0100 714e 0000
00000110: 3a03 0180 151c 0100 0391 0000 b7d8 0c84
00000120: 8716 0180 b7bd 0080 6f31 0080 e08f 0000
00000130: 0d22 0000 b2e7 0080 f69f 0000 e293 0000
00000140: b98a 0000 fd77 0080 f13e 0000 bb86 4115
00000150: 877c 0080 bf68 0000 b009 0080 4a1c 0080
00000160: 7719 0100 44c6 0000 065a 0000 eefa 0000
00000170: c2fb 0000 7c47 0000 6498 0000 7ec7 2182
00000180: 4381 0080 bc93 0000 8988 0000 c65b bd11
00000190: 660c 0000 f160 0080 5839 0080 4f0b 0080
000001a0: 58b1 5c88 452c 0000 ec60 0080 6c37 0000
000001b0: 6ec1 0000 4a98 0580 a089 0080 1bcb 0000
000001c0: d34d 0000 e247 0080 8141 0100 9431 0000
000001d0: c36c 0000 40b0 4210 82bc 0000 e372 0080
000001e0: 3360 0080 cb19 0080 a933 0080 305e 0080
000001f0: f27c 3090 cf4c 0080 24b9 0000 5c3e 0080
00000200: 631b 0180 8f03 0080 cf2d 0000 410c 0100
00000210: ca30 3396 dd77 0000 6c8d 0080 5acc e910
00000220: 9ee7 0080 6897 0280 490c 0080 4572 0080
00000230: 5836 0000 be22 0100 fb16 0180 3d52 0000
00000240: 0628 0180 49fa 0000 0522 0180 add4 3a1d
00000250: a98d 0000 e26f 8c1d 85cc 0080 1978 0080
00000260: b9b9 0000 b72b 0000 9fd8 0000 3397 0080
00000270: 38be 0000 57ff 0080 5157 0080 92d1 0080
00000280: 0d6c 0080 56d7 0080 5d7b 0080 730d 0000
00000290: 9dc5 0000 8f9d 0080 9d08 0080 8e73 0080
000002a0: 4530 0000 1fea 0000 7e1b 0080 6f12 0080
000002b0: c334 0000 35c4 0080 23d1 0080 7c0a 0080
000002c0: 6170 0000 85e2 0000 682b 0080 0dee 0000
000002d0: c977 0000 62e9 9d84 e81d 0180 3448 0080
000002e0: 382a 0080 b600 0000 f53e 0000 b63b 0080
000002f0: 9b3d 2a00 6126 0000 d2f2 0080 9b5d 0000
00000300: 69e0 0000 5433 0080 01bb 0080 3a3d 0000
00000310: b442 0080 2c8c 0080 9bb6 0080 d441 0000
00000320: cd20 0080 c714 0000 6e65 0080 0c27 0100
00000330: 95c1 0080 379d 0000 1107 0000 5c98 0080
00000340: bd49 0080 f76f 0080 9ee9 0000 79c8 0000
00000350: 703b 0100 6001 0100 41b4 0080 f702 0180
00000360: f935 0000 6726 e406 4386 0000 de8d 0080
00000370: 4065 0080 5f95 0000 eb45 0000 4066 0080
00000380: ce60 0080 5bd4 0000 15fb 0000 54e7 4585
00000390: df5a 0080 e218 0100 9b33 0000 a420 0000
000003a0: 48d5 0000 2a18 0e84 2474 0080 c240 0080
000003b0: 7ea7 0080 9dcb 0080 fdf6 0000 7b75 0000
000003c0: 7a6f 0000 0f24 0180 7e51 0000 db47 0100
000003d0: 24bf 0000 06e0 0000 2b6a 0080 aed2 0000
000003e0: ff21 0180 71a2 d506 5917 0080 b00a 0180
000003f0: 70b8 0000 62e0 ce10 a036 0000 2339 0080

fc1.bias f4 [32]
-3.6996013e-08 -4.3828385e-14 0.18862544 0.3310136 -5.3599604e-07 -7.553294e-29 -7.3399534e-08 -2.6570822e-06
-1.7680653e-18 0.14399637 2.1173712e-11 -3.6925888e-12 0.046030927 -2.0122775e-07 -9.3686794e-11 -9.903722e-06
0.00011723577 -8.536963e-07 -1.3821211e-11 -0.0015001113 -7.4913004e-07 -0.009324529 -1.918044e-16 -0.03904823
-1.4033505e-10 -4.1374442e-05 -0.00031622715 -1.1576565e-19 -7.280187e-18 -0.00014946748 -7.422694e-06 -4.0670448e-06
00000000: 8ce5 1eb3 b062 45a9 0727 413e 9d7a a93e
00000010: 5ee1 0fb5 ae7f bf90 d29f 9db3 5350 32b6
00000020: cf75 02a2 c973 133e f63e ba2d e2eb 81ac
00000030: ed8a 3c3d 1011 58b4 fa04 ceae 2928 26b7
00000040: 7adc f538 9029 65b5 3325 73ad 629f c4ba
00000050: d317 49b5 e9c5 18bc ab22 5da5 09f1 1fbd
00000060: ce4c 1aaf 7889 2db8 4acb a5b9 05ac 08a0
00000070: b64b 06a3 5fba 1cb9 7510 f9b6 a677 88b6

fc2.weight f4 [2, 32]
3.9611705e-06 0.0001748664 -0.42579466 0.61706555 2.3243247e-05 2.6944778e-09 8.320436e-06 -0.0026946757
1.771285e-17 -0.3329389 4.064776e-11 5.4487054e-11 0.024150979 -0.0003241334 1.507848e-05 -0.0016876755
-0.0001194158 9.881277e-06 8.799289e-08 0.001666317 0.0034412956 0.008017721 8.80708e-06 0.030576231
-0.00076787005 0.00044058356 0.014133919 4.7899775e-05 -1.3319613e-09 0.00025409658 -0.0031744135 0.00031490347
-4.3420773e-06 -0.00017458676 0.42295846 -0.44515452 -0.00040957186 -6.2261667e-09 -1.1632341e-05 0.002694711
-2.3924995e-17 0.30483484 -8.019083e-12 5.8946563e-12 -0.078655355 0.0003854545 -1.1865409e-05 -0.0012538465
0.00011887931 -2.6547038e-06 -7.680189e-08 -0.0016686198 -0.0034499816 -0.008012653 -5.8539017e-06 -0.030718707
0.00076714886 -0.00047059357 -0.019064855 -4.5633355e-05 1.0732331e-09 -0.00025408936 0.003245723 -0.00031495772
00000000: 32ea 8436 585c 3739 c201 dabe 02f8 1d3f
00000010: 7efa c237 c129 3931 0098 0b37 2899 30bb
00000020: 495f a323 f876 aabe 4fc5 322e f8a2 6f2e
00000030: 46d8 c53c 73f0 a9b9 94f9 7c37 fe34 ddba
00000040: df6e fab8 c3c7 2537 9af6 bc33 5268 da3a
00000050: 5c87 613b c25c 033c 1fc2 1337 017b fa3c
00000060: e34a 49ba 20fe e639 f491 673c fee7 4838
00000070: 3910 b7b0 4438 8539 d209 50bb a119 a539
00000080: 29b2 91b6 4711 37b9 038e d83e 4beb e3be
00000090: cebb d6b9 f1ed d5b1 8628 43b7 c099 303b
000000a0: 4cab dca3 5013 9c3e bd12 0dad 5866 cf2c
000000b0: 0f16 a1bd d416 ca39 8b11 47b7 1b58 a4ba
000000c0: d84e f938 7727 32b6 49ee a4b3 97b5 daba
000000d0: 1619 62bb 8147 03bc a26c c4b6 cca5 fbbc
000000e0: 7d1a 493a 00ba f6b9 e62d 9cbc 7166 3fb8
000000f0: 0881 9330 4c37 85b9 32b6 543b e920 a5b9

fc2.bias f4 [2]
0.052870356 -0.17139103
00000000: 968e 583d 2181 2fbe
